vision/mnist/le_net_5.pth (torch, 248002 bytes, 12 tensors)

layers.0.weight f4 [6, 1, 5, 5]
00000000: d51a b6bd 3cb0 e3bd c0f1 5dbe dc49 92be
00000010: aff6 93be c299 c3bd 6639 04be af4a 4dbe
00000020: c28a 06be 7adb f1bd 1358 27be 757b 27be
00000030: 67be 0dbd 42fc 3fbe 3022 9f3c b6ac 203e
00000040: d333 233d 7a85 5dbe 9bb6 fdbb b202 923e
00000050: 7319 a0bc 896e c6bd ff59 333e d13f 56bd
00000060: f406 8b3e 09e4 36bd 988a 65be 0df4 77be
00000070: c13a a33b 9bd9 953d ce3c ed3d 0a4d 323d
00000080: 45e8 89bc 2615 f43d 8877 6cbe 165e 683d
00000090: b344 cebd 7d55 8f3e 74c0 94bd 78e6 5fbe
000000a0: f224 20be aa94 3b3e 568e 4fba 149d 6e3e
000000b0: 3801 d3bd 9d77 a9bd 4064 24be 836d 22bd
000000c0: 30f3 57bc a640 963d 5151 44be d3d2 5a3c
000000d0: f8fd 74bc 6dd1 cbbd 170d efbd 2147 83bc
000000e0: 49e7 ddbd 92d9 29be 8eaa c5bb 2069 2bbd
000000f0: 1759 683e 188f 263e 4caa 87bd d0a7 62bd
00000100: bf49 a43d fee3 883e 3dde 5b3e 07bf e5bc
00000110: e6ae 69be 5a9e afbd b392 7d3e 692b 3a3d
00000120: 4ced 88bd 3dfd dc3d 17ac b7bd bd95 8a3d
00000130: 2130 c03d 157a abbc cec5 8e3d 494b 6c3e
00000140: 0143 6a3e bca0 f23d 4b32 633e 8cf7 0f3e
00000150: 591b 4c3e b281 c73d 226c 01bd c215 35bd
00000160: 73f0 26be 5b1f 72bd 8473 6cbe 3e85 97be
00000170: 3725 0bbe 9e08 88bd 8f75 93bd a954 7ebe
00000180: ddb5 6dbe c62b 10be 1558 91be 0595 8abe
00000190: fa8b c23d a025 32be 91ab 8dbe eb61 eebd
000001a0: d9a7 97bd b4a3 bc3d e66c b2bd 25af b7be
000001b0: ccac 4e3d 7fe9 c03d ec8b 653e 60d6 dcbd
000001c0: 3b40 06be 3f2a 98be 3ca4 8e3e 1dde b73d
000001d0: 4e0e b9be 7b20 a7bd 682c 89bd 99a8 fb3d
000001e0: 3b79 2fbd fa87 13be c926 0dbe 968b f1bd
000001f0: 4486 283e 910f 8abe 2fcc 86bd e5d6 80be
00000200: ab82 4ebe 6577 093e 592e 4cbe 65db 81be
00000210: 7f78 56bd d14a 833b 5f86 07be a133 d43c
00000220: b7f6 033c b473 8abd c971 a33d 7b94 613e
00000230: 2b75 373e 3155 1a3e 1c62 0b3e 3119 9e3d
00000240: 8e25 1a3e 21cf 8e3e 4ab8 9abd a3fd fd3d
00000250: 5fbf 2f3e 6124 2bbe
-0.088918366 -0.111175984 -0.21674252 -0.28571975 -0.28899142 -0.09550811 -0.12912521 -0.20048021
-0.1313887 -0.1180944 -0.16342191 -0.16355689 -0.03460541 -0.18748572 0.019425482 0.15690884
0.039844345 -0.21632949 -0.0077427155 0.2851768 -0.019543385 -0.09689052 0.175148 -0.052306954
0.27153742 -0.044651065 -0.2241615 -0.24214192 0.0049813692 0.073168956 0.11583863 0.0435305
-0.016834388 0.11918096 -0.23092473 0.056730352 -0.10071697 0.2799491 -0.0726327 -0.2186526
-0.15639094 0.1831843 -0.0007917633 0.23302108 -0.10302967 -0.082747675 -0.16053867 -0.03965522
-0.013180539 0.073365495 -0.19171645 0.0133559285 -0.014953129 -0.09952054 -0.116724186 -0.016025128
-0.1083513 -0.16586903 -0.0060322946 -0.041848302 0.22690235 0.16265523 -0.066242784 -0.05533582
0.080218785 0.26736444 0.21471496 -0.02804519 -0.22820625 -0.08575125 0.24762993 0.045451555
-0.06685886 0.10790489 -0.089683704 0.067668416 0.0938418 -0.020932237 0.06971322 0.23075594
0.22877122 0.11847064 0.22187154 0.14059275 0.19932307 0.09741534 -0.031597264 -0.044210203
-0.16302662 -0.059111934 -0.2309094 -0.29593843 -0.13588415 -0.066422686 -0.07200157 -0.24836983
-0.23213907 -0.14079198 -0.28387514 -0.27066818 0.09499355 -0.17397165 -0.27669957 -0.1163977
-0.07405061 0.092109114 -0.08712177 -0.35875812 0.05045776 0.09419536 0.22416657 -0.10783076
-0.1311044 -0.2971973 0.27859676 0.089779116 -0.36143726 -0.08160492 -0.06697923 0.12288017
-0.042840224 -0.1440734 -0.13784327 -0.11794202 0.16457468 -0.26965 -0.06581914 -0.25163952
-0.20167033 0.13424452 -0.19939555 -0.25362697 -0.052361008 0.0040067215 -0.13234852 0.025903525
0.008054427 -0.0676035 0.07980687 0.22029297 0.1791579 0.1507156 0.13611645 0.07719649
0.15053388 0.27892402 -0.075546816 0.12401893 0.17162846 -0.16713096

layers.0.bias f4 [6]
00000000: 0c74 583e 518f 69bd de69 613d 8738 aabd
00000010: 82f4 02bd a882 13be
0.21138018 -0.057021443 0.055032603 -0.08311563 -0.031971462 -0.1440531

layers.2.alpha f4 [6, 1, 1]
00000000: 2be0 923f 56b1 843f a70a 8b3f 247f 933f
00000010: ebf0 993f f1fd 893f
1.1474661 1.0366619 1.0862626 1.1523175 1.2026647 1.0780622

layers.2.beta f4 [6, 1, 1]
00000000: 93a0 503c 4c9c c43c 6c54 8b3b 241b b63b
00000010: 8598 4f3b 0246 613b
0.012733596 0.02400031 0.004252007 0.0055574346 0.0031676602 0.0034374003

layers.4.weight f4 [16, 6, 5, 5]
00000000: 2a70 673c 500c 653d 01b5 30bd 9952 5a3d
00000010: 094f d13c dbdc b9bd 7328 a4bd e292 02bd
00000020: 0184 b4bd e71f 703d 8403 233b 8ede 42bc
00000030: 6a0b e1bd 9299 f1bd 23c6 c4bd 3544 223c
00000040: 7d45 babd dfed d23c 6f84 4cbd 50c1 51bd
00000050: 2cbc a3bd 51a1 4cbd f0aa 1b3d ddfe cebd
00000060: 1f3c 94bd dc47 34bc bf65 ad3d 8ff5 043d
00000070: e199 75bd 0833 3dbc ff74 913d 9ba4 873c
00000080: 290f 813c f353 743d 3817 ac3d 01c1 683d
00000090: ddf9 22bd 1f35 b8bc a4ee 483c eb02 62ba
000000a0: b678 5e3c b0e5 89bc efb6 543d bc9b f33c
000000b0: 2f7e 3f3d a04d 463d 7372 3a3d f643 d0bb
000000c0: e2be bb3c f4c1 a8bc d6d9 213d baa9 843d
000000d0: 28f4 fe3c 3b19 863a ac69 7b3d 22a0 3bbd
000000e0: 0ee1 94bd f70d b23d c04d e53d 0464 bf3d
000000f0: 5175 e9bc 229b 6a3c 3372 ba3d f7a4 513d
00000100: e998 a53b 983d b23d 93cb b23c 8425 a03d
00000110: acb1 38bd 094f a6bc 8dcf 7abd fdab a4bc
00000120: 9321 41bd 8ae8 5bbd bd62 32bd 8e02 96bd
00000130: 0653 86bd 8e3f 59bd 761b 0a3b 11ea 1cbe
00000140: c528 7e3d e139 47bc b35e 8cbc 6ab8 00be
00000150: 0c37 01be 316e fc3c 93da b8bd 9b8a da3c
00000160: 56e2 abbb 1690 28be 6e72 92bc f26c e9bd
00000170: 9759 babd cb5d 2abd d7ee b7bd 3ac1 633d
00000180: ac19 103c 8973 093b 8bff 15bd 3396 78bc
00000190: be00 1abc 5dac 2d3d 68cc 0ebc 1c87 9b3d
000001a0: 3f6c a5bc dc36 3bbd 9dd5 40bd 5dae 37bd
000001b0: 0801 67bd 1e93 9d3d 1ee3 35bd 3ef1 8a3d
000001c0: 996c 25bc 28c1 393d 1db0 493c a151 063d
000001d0: 2687 5fbd 8245 41bd 6e08 093e 71a4 883c
000001e0: f19a cebd 92ad 83bd f9e9 2dbd 5999 483c
000001f0: ec99 8d3d b8e1 58bd a597 cc3c ca32 6c3b
00000200: a7b7 803d a32b 83bd 336a c1bd 9148 3f3d
00000210: bcbb 4fbd 2f8a 2d3d 3c0d 2e3d 0188 3cbc
00000220: b09c 34bc 7e9e a8bd 51da 983c ef1f 6bbc
00000230: 88a4 bc3d ec3b 9bbc d1ed 32bd b47c 153d
00000240: 4a47 9abd b4ca b03d 5d7e 45bb 2cd9 c73c
00000250: d586 2cbd 4184 0fbd f5f6 053d 53d6 4f3c
00000260: 58a7 68bd ade0 9fbc 75d2 b2bc a0b3 143d
00000270: 110f 02bd 7563 b83c 7dd2 09bc 4780 d5bd
00000280: 57eb d6bc 1bd5 8c3d 1ae6 203d 57a4 25bc
00000290: 8970 afbc f1e3 73bd edc1 243d 97e9 17bd
000002a0: 5f24 653d f88e 923b c7f9 50bd 00a5 843d
000002b0: fddc 6e3c c0fa ea3b c1df babd 9dfa 843d
000002c0: 7c1a 083d c24a 9a3d 57da fd3c 511e 273c
000002d0: b5bc 36bd 9627 3f3d 9bf7 b33c 825c b1bd
000002e0: 0f85 593d 227b 2bbd f08c 973d 0e62 7abb
000002f0: b1f6 553c 3b53 85bd d65f b5bc dac6 023d
00000300: dc77 78bd 6e29 acbb bd88 093d a08f 56bd
00000310: 5042 783d 2e7e b0bc fd22 81bd 7bb8 65bd
00000320: 0485 4aba 9ba4 993d d09c 8a3d 854f b53d
00000330: 39bb 1c3d 4531 533d 626d 893d 8947 e0bc
00000340: a9d1 81bd 4f83 51bd 2296 873d bd0a 373d
00000350: 7bc7 68bd be7a 70bd 38e1 163c f1ee 6d3d
00000360: bccd 82bd b415 c2bd 6777 9b3d 2706 9e3c
00000370: 4eb2 c03d e09e 1c3d d2ed 253c b5dc 67bb
00000380: 3cf7 a1bd 48f2 dd3d 84de b53d 6f59 c93c
00000390: 8539 e3bc 2411 a6bd 5fa1 0e3d 7f3e 1cbc
000003a0: baf5 9d3d e44c 82bd e36a a0bd 79d9 7c3d
000003b0: ee10 d13b ebf9 acbd 34a2 6ebd c777 d0bd
000003c0: c12b cf3d b8ad 8d3c 8f82 5ebd 0d2b c8bd
000003d0: 5bbb e7bd d255 c23d 2227 763d a75e bbbd
000003e0: dff9 943d 39dd fe3d 4a4a 193d 0583 803d
000003f0: 953d 02bd a87c c63d 674c 7c3d 7943 ad3d
0.014125863 0.055919945 -0.04314137 0.053301428 0.025550382 -0.09075328 -0.080155276 -0.03187836
-0.0881424 0.058624174 0.0024873922 -0.0118938815 -0.10988505 -0.11796869 -0.09608104 0.009903957
-0.09095285 0.025748191 -0.049930986 -0.051209748 -0.07994875 -0.04995853 0.038004816 -0.10107205
-0.0723803 -0.011003461 0.08466672 0.032460745 -0.059961203 -0.011547811 0.07102393 0.016557982
0.0157543 0.059650373 0.08402866 0.056824688 -0.03978907 -0.022486268 0.012263928 -0.00086216506
0.013578584 -0.016833156 0.05193227 0.029737346 0.046751197 0.048413873 0.045519304 -0.006355758
0.022918168 -0.020600297 0.039514385 0.06477685 0.031122282 0.0010230908 0.061380073 -0.04580701
-0.07269488 0.0869407 0.1119647 0.09345248 -0.028498324 0.014319213 0.09103813 0.051182713
0.0050536287 0.08703154 0.021825587 0.078196555 -0.045091316 -0.020301359 -0.061233092 -0.020101542
-0.04715116 -0.053688563 -0.043551195 -0.07324706 -0.06558804 -0.053039126 0.0021073497 -0.15323664
0.0620506 -0.0121597955 -0.017135 -0.12570348 -0.12618655 0.030814262 -0.09026065 0.02667742
-0.005245487 -0.16461214 -0.01787683 -0.11397733 -0.09099119 -0.041593354 -0.08981102 0.055604197
0.008795183 0.0020973405 -0.036620658 -0.015172529 -0.009399591 0.042400707 -0.008715726 0.075941294
-0.020193217 -0.045706615 -0.047078717 -0.04484402 -0.056397468 0.07694076 -0.04440605 0.067842945
-0.0100966925 0.045350224 0.012310055 0.03279269 -0.054572247 -0.04718543 0.13382122 0.016679974
-0.100881465 -0.0642959 -0.04245946 0.012243592 0.06914124 -0.052949637 0.024974653 0.0036041015
0.06285029 -0.064048074 -0.09444084 0.046700064 -0.050716147 0.04236811 0.04249309 -0.011507035
-0.011023685 -0.08233355 0.018658789 -0.014350875 0.09211069 -0.018949471 -0.04368383 0.03649588
-0.075331286 0.086324126 -0.0030135133 0.024395548 -0.042120773 -0.035038237 0.03270622 0.012685376
-0.056800216 -0.019516313 -0.02182887 0.036304116 -0.03175265 0.022508362 -0.008412001 -0.104248576
-0.026235266 0.06876584 0.039281942 -0.010109982 -0.021415966 -0.059543554 0.040224005 -0.037088003
0.05594289 0.0044726096 -0.051019456 0.06476784 0.014579055 0.007171005 -0.09124709 0.06493113
0.033228382 0.0753379 0.030987902 0.010200099 -0.04461356 0.04666861 0.021968653 -0.086602226
0.05310541 -0.041865475 0.073999286 -0.0038205418 0.013059304 -0.065100156 -0.022140425 0.03192792
-0.06066118 -0.0052539622 0.03357767 -0.052383065 0.060610116 -0.021544542 -0.063055016 -0.056084137
-0.00077255093 0.07502099 0.06768191 0.08853058 0.038264487 0.05156066 0.06710316 -0.02737786
-0.063388176 -0.051150616 0.066204324 0.044687975 -0.056830864 -0.058710806 0.00920897 0.0580892
-0.06386897 -0.09476796 0.075911336 0.019290043 0.09409009 0.038237453 0.010127502 -0.0035379354
-0.07908484 0.10837227 0.08880332 0.024578778 -0.027737388 -0.08108738 0.034821864 -0.009536385
0.07712884 -0.06362322 -0.07832887 0.061730836 0.006380192 -0.084461056 -0.058260158 -0.10179096
0.10115767 0.01729475 -0.05432373 -0.09773836 -0.11315032 0.09489025 0.060095914 -0.09148913
0.07274222 0.124445386 0.037424363 0.0627499 -0.03179701 0.09691745 0.0615963 0.08460135

layers.4.bias f4 [16]
00000000: a844 95bc d675 49bd 6232 95bd 49d0 4fbd
00000010: 9712 d13c 37cf 413d e78a 28bd 79f5 a93d
00000020: 00fa 003d 7d5d b03d c927 06bd bc2a 0cbd
00000030: bac3 2e3d e64e 2abd 2e60 21bd d9b1 82bd
-0.018221214 -0.049184643 -0.072850004 -0.050735746 0.02552156 0.047316756 -0.041148093 0.08298773
0.03148842 0.086115815 -0.032752786 -0.034220442 0.04266713 -0.04157915 -0.039398365 -0.06381578

layers.6.alpha f4 [16, 1, 1]
00000000: 11dc 893f 6c2b 8b3f 0505 873f 85d7 903f
00000010: bb13 893f 2d91 883f 5099 883f f258 843f
00000020: 750b 873f dc7f 883f 8909 863f 9ad7 8b3f
00000030: afe9 833f 3528 873f 16a1 873f 1a2e 843f
1.0770284 1.0872626 1.0548407 1.1315771 1.0709146 1.0669304 1.0671787 1.0339644
1.0550371 1.066402 1.047166 1.0925171 1.030569 1.0559145 1.0596035 1.0326569

layers.6.beta f4 [16, 1, 1]
00000000: 3c37 f2bb 202f bdb9 8b7d acbc 1c81 1739
00000010: b6e4 1a3d d355 723b 5bb7 a93c cf2b db3a
00000020: 7333 33bb 2fea 0e3b 142c f3bb 77cf ebba
00000030: ca38 c5bb 716b ecbb b944 a03b 99c9 2c3b
-0.0073918384 -0.00036084 -0.021055957 0.00014448579 0.037815772 0.0036977425 0.020717314 0.001672143
-0.0027343899 0.0021807065 -0.007421026 -0.0017990906 -0.0060187327 -0.0072149565 0.004891005 0.0026365279

layers.8.weight f4 [120, 16, 5, 5]
00000000: ae83 acbc 6a5a 96bc 84f5 63bd ea22 b5bc
00000010: 8c14 af3b f7d3 f9bc ad72 f8bc 439a 0c3d
00000020: 1da4 00bd 8630 c1bc 665a 063d 1b8d a0bc
00000030: eae3 1c3d 5f3b 133d 783c d33c a10c 39bc
00000040: 0e54 133b 4b8a 5dbd 2f39 223b 11f3 aabc
00000050: cd19 4f3d 1086 5c3d 920b bebc 7bb3 0f3d
00000060: 3f80 a4bc 6d40 f33c b7ee 0cbd 92e7 f9bc
00000070: 05f9 28bd 4c86 c4bc 188b 91bc a51d 5cbb
00000080: 63bc 343c c0b8 cfbc d9c8 013d 90d5 d4bc
00000090: c56f 833c 5411 16bc 01e9 733c 0c26 3f3d
000000a0: 5a62 24bd fb90 e83c 37e2 103d 9045 5dbc
000000b0: 1d5a 4b3d 6d08 673d b034 263c d799 2a3d
000000c0: 5ab7 2e3d f163 00bc 94a3 cdbc 3318 1bbd
000000d0: c8a3 373c 73fb 543d ef5f 3fbd 3b88 c03b
000000e0: 5ad4 57bc b013 18bd b914 39bd 8898 34bd
000000f0: dd5e ce3c 9e2f 883b dca5 9dbc e419 b0bc
00000100: a552 0e3d 8eb1 1cbc e1d9 063d b338 87bb
00000110: 1e45 cdbb 2b00 29bd 95fe 1c3d 81d7 20bc
00000120: e66c b33c abb7 3fbd 9c2b 35bd 775c 883c
00000130: 64ab e03c c36f 86bc c6a5 fdbc beda fcbb
00000140: 4719 ca3b 11e3 d6bc 4d29 0cbc 0a71 45bb
00000150: 92b1 923b df59 043d e5ec 1b3d 78f2 c8bc
00000160: b87c c03c 1dc7 8cbc 5a6d c43b fc61 44b9
00000170: 4395 453d 6a2d b1bc 5927 103d 41a2 9fbb
00000180: 5de6 e6bc bd7b 253d 9fb7 803b 777f a73c
00000190: 232e 863c 48e8 0dbd 1ddc e83c 6c97 15bd
000001a0: 368c 893c 4807 ccbc 7c70 1bbd 7b07 0ebd
000001b0: c72e 55bc e0f6 5c3c 9a8d 45bd 0bf1 07bd
000001c0: fb5d 703b 33be 893c 3639 563b 5d90 603c
000001d0: 273f 1e3d 430d a43b cda5 c8bc a8cf f03c
000001e0: 26af ffbc e04b 09bd 785f 1ebc 20c8 263d
000001f0: 006e 513d bea0 fb3c 38ae bbbc 8b3d 88bc
00000200: a7cf 2a3d c52c 90bc d154 58bd a266 3bbc
00000210: a57f 9f3c fbd4 b23c 56a3 1f3d 8125 67bc
00000220: f40d c53c 12d6 26bd a423 d33c ac5d bc3c
00000230: 9ac6 8d3b 920c ccbb 3afc 6cbb 5889 febc
00000240: d711 1dbd 11b7 1bbd 4298 28bd 1c80 1dbd
00000250: 044e 16bd a3b9 153c b3df 8dbc be68 1bbd
00000260: ed8c 1bbd dc1a 84ba e273 ab3c 3cc2 cb3c
00000270: b826 12bd f3ce 4b3d 148a e93c 85a9 393d
00000280: b60c eb3c 6b43 e63b 6422 3dbc da86 c43b
00000290: 34a5 eabc 1807 183d 99f4 723c 79f6 763c
000002a0: 1930 293c f90f 753c 48bb f1bc 920b f53c
000002b0: b9da eabb 597d f7bc defe e23c b80b 1c3d
000002c0: 956f e23c 4d4d 123d 16df 2ebd 44c6 67bc
000002d0: bd9a 46bd f56d 1f3d 303d d33b eb1e 273c
000002e0: ae4e 98bb 325d 3dbd 660e 493c c9e6 0cbd
000002f0: c17c 5bbc 3604 2fbd 4d52 e73b c34d 6cbd
00000300: 241e afbc d0ab 4bbd 8f56 a1ba 862d 57bd
00000310: 88cf 32bd 9830 3e3c 2d6f 4cbd 23e5 e43b
00000320: 7145 023d 0f87 523d 918b 8a3c ff1c 3fbb
00000330: e386 ba3c 6ab8 613d 4b38 fc3c 26a4 da3c
00000340: 2070 003d 2dac 433d 81e0 07bd d065 0e3d
00000350: af42 5a3c fe55 9cbc 36a6 613d 309f 0cbc
00000360: bafe 7c3a 172b febb d674 be3c d97f d6bc
00000370: 0eb6 27bd 2c55 b8bb ac5f 673d 7045 babb
00000380: aa57 163c f9bd a33c e266 a9bc af39 9ebc
00000390: 2ea9 41bd 6e3c 98bc 1c75 4abb 93de 5a3c
000003a0: 9d14 21bc 3390 543c 8f2c 8fbc e1e6 16bd
000003b0: 3abc 923c 40aa 83bd b8e2 8fbb 149d e4bc
000003c0: a832 3bbd a50e 9fbc 475c c1bc 12ab d1bb
000003d0: 8790 ea3b 54a1 6dbd 1157 09bd fe50 b8bc
000003e0: aac9 c73c 8b23 063d 3251 483d ce39 2cbc
000003f0: 6b89 083d 69ca b5bb 283a ea3c 46bc 3bbd
-0.021058884 -0.01835366 -0.055654064 -0.022111375 0.0053430256 -0.03049658 -0.03032812 0.034326803
-0.03140651 -0.023582708 0.032801054 -0.019598534 0.038303293 0.035945293 0.02578567 -0.011294515
0.002248052 -0.054086965 0.0024753322 -0.020867856 0.050561715 0.05383879 -0.023198877 0.035083275
-0.020080684 0.029693807 -0.034407344 -0.03050593 -0.04125311 -0.023989819 -0.01776652 -0.0033587005
0.011031243 -0.02535665 0.031685684 -0.02598074 0.016044507 -0.009159405 0.014887095 0.046667144
-0.040132858 0.028389445 0.035371985 -0.0135053545 0.049646486 0.05640452 0.010144398 0.04165062
0.042655326 -0.007836328 -0.025102414 -0.037864875 0.011208482 0.051997613 -0.04672235 0.005875615
-0.013173187 -0.03712815 -0.04518578 -0.044090778 0.025191719 0.004156067 -0.019244127 -0.02149672
0.034746785 -0.009563817 0.03292263 -0.004126632 -0.006264343 -0.041259926 0.038328726 -0.009817005
0.021902513 -0.04680602 -0.044231042 0.016645653 0.027425475 -0.016410714 -0.030962836 -0.007716506
0.006167564 -0.02623132 -0.008554769 -0.003012719 0.0044767344 0.03231227 0.038067717 -0.02452968
0.02349697 -0.017184788 0.005994481 -0.00018728519 0.04823805 -0.0216281 0.035193775 -0.004871637
-0.028186018 0.04040121 0.0039281393 0.020446522 0.016379422 -0.03464535 0.02842527 -0.03652136
0.01679049 -0.024905816 -0.03794907 -0.034675103 -0.013011641 0.013486594 -0.048230745 -0.03318886
0.003667711 0.016814327 0.003268791 0.013706294 0.038634446 0.0050064637 -0.024493122 0.029395893
-0.031211447 -0.033519626 -0.009666316 0.040718198 0.051130295 0.030716296 -0.022910222 -0.016630908
0.04170194 -0.017599473 -0.052815262 -0.011438044 0.019470045 0.021830073 0.03897413 -0.014108063
0.024054505 -0.040731497 0.02577383 0.022993885 0.0043266537 -0.0062270844 -0.003616108 -0.03107135
-0.03834709 -0.038016383 -0.04116083 -0.038452253 -0.036695495 0.0091384975 -0.017318582 -0.037941687
-0.037976194 -0.0010078805 0.02092928 0.024872892 -0.035681456 0.04975791 0.028508224 0.045327682
0.028692584 0.00702708 -0.011543844 0.005997521 -0.028643228 0.03711614 0.014828824 0.015073412
0.010326409 0.014957421 -0.029508248 0.029912744 -0.007167187 -0.030211138 0.02770942 0.038097113
0.027641097 0.03571825 -0.04269322 -0.014146391 -0.048487414 0.038923223 0.006446503 0.0102002425
-0.004648051 -0.046231456 0.012271499 -0.03439978 -0.013396443 -0.042728625 0.0070593716 -0.057691347
-0.021376677 -0.0497244 -0.0012309122 -0.05253365 -0.04365495 0.011608265 -0.049910713 0.006985323
0.031804506 0.051398333 0.016912254 -0.002916157 0.022769397 0.05510751 0.030788561 0.0266896
0.03135693 0.04777162 -0.033173088 0.034765065 0.013321563 -0.019083973 0.05509015 -0.008582875
0.00096509943 -0.0077566016 0.023249071 -0.02618401 -0.040945105 -0.0056253877 0.056487724 -0.005684547
0.009176174 0.019988047 -0.020678941 -0.019314615 -0.047280483 -0.018583503 -0.0030892557 0.01335873
-0.009831575 0.012973833 -0.017477302 -0.036841277 0.017912019 -0.06428957 -0.0043910407 -0.027906932
-0.045702606 -0.019416163 -0.023603572 -0.006398567 0.0071583423 -0.058015183 -0.0335303 -0.022499558
0.024388153 0.03274874 0.04890556 -0.010511829 0.033334177 -0.005547811 0.028592184 -0.04583385

layers.8.bias f4 [120]
00000000: d879 8fbb 464f 7cbc e2f9 00bd 6eec 30bd
00000010: 9ad3 323d f0e6 02bc d76a ddbc 9823 2dbd
00000020: e3e6 c3bc c53c 083c 1186 553c 13ec 0f3d
00000030: d1eb 1d3d 41c4 183d 88b1 053c 096d 473d
00000040: 75df 87bc 33f8 333d 578e 8c3c 1385 393c
00000050: 7d72 29bd feea 2c3c 89cf 14bc 513f 2bbd
00000060: c5eb 53bd f628 6d3c 9d82 173d 8653 f4bc
00000070: c880 f5bc d795 e8bc e631 3b3d 46e3 14bb
00000080: 3d58 c23c 0680 963a e319 cbbc 9408 fbbc
00000090: 6591 d23b 167e 85bc aaad 0fbd b714 56bc
000000a0: b2c3 7fbb 17a9 bfbc a23f 1a3d 4337 93ba
000000b0: e72a da3b 1a2c d33c 78a7 31bd c1e5 423d
000000c0: 2055 2c3c 82e2 753b a469 e5bc 7dc5 183d
000000d0: 16bd 293d 4d91 d9bc 3a6f 55bc d297 053b
000000e0: cbaa 5a3c b11b e73c 5a9d d0bb 6bf9 8abc
000000f0: a966 593d 6551 293d 4d35 4d3d 4172 8b3b
00000100: d4f0 3e3b eb13 d03c 6b7b e3bc 8972 0abd
00000110: 51d2 023d 7df1 b0bb 4222 723c d88f b3bb
00000120: 85f0 353c 910b e43c 1009 e6bc f7fe 1d3d
00000130: 14c2 f7bb 5c97 733c acda eb3c a9c9 493d
00000140: df98 5d3c 5178 acbb 8964 b2bb 983e 19bd
00000150: 1944 20bc 0bcb 183d 9956 823c 15a8 46bd
00000160: 2c7e a93c 755f a6bc 55ef a6bb f7b1 943c
00000170: d096 40bc e70a 4b3c a9ba 0fbd 68ad 1f3d
00000180: 33a9 dcbc 0b46 3f3c 0d71 47bc ab30 d13b
00000190: b90d dd3b 0f07 81bc 0823 54ba f7fd 023d
000001a0: 6ed9 1cbd 73a7 d53c 0896 37bd 94ac 1cbd
000001b0: 5a81 e33c 8104 95bb 868d b63c 19b5 04bc
000001c0: b69f 28bd 03d8 2ebd d39b 163d d16b c4bc
000001d0: e7e2 f7bc 6844 4abc bd13 afbc 2e04 af3c
-0.0043785386 -0.01539976 -0.031488307 -0.043194227 0.04365883 -0.00798963 -0.027028484 -0.042270273
-0.023913806 0.00831527 0.013032452 0.035137247 0.03855497 0.037296537 0.0081600025 0.04868797
-0.016586045 0.043937873 0.017157717 0.011323231 -0.04136895 0.010554073 -0.009082683 -0.04180843
-0.05173852 0.014475098 0.036989797 -0.029824983 -0.029968634 -0.028391762 0.045701884 -0.0022718473
0.023723716 0.0011482246 -0.024792617 -0.030643739 0.006426024 -0.016295474 -0.03507773 -0.013066462
-0.0039026556 -0.023396058 0.03765834 -0.0011231679 0.0066579464 0.025777865 -0.0433726 0.04758239
0.010518342 0.0037519042 -0.028004475 0.037297715 0.041440092 -0.026558543 -0.013027007 0.0020384681
0.013346384 0.028211446 -0.006366414 -0.016964635 0.05307642 0.04133739 0.05009966 0.0042555635
0.0029135244 0.025400123 -0.027768811 -0.033800635 0.031938855 -0.0053998814 0.0147786755 -0.005479794
0.011104708 0.027837547 -0.028080493 0.03857323 -0.0075609777 0.01486763 0.028790794 0.049264584
0.013525217 -0.0052633663 -0.0054441136 -0.03741321 -0.009781861 0.037303012 0.015910434 -0.04850014
0.020690046 -0.02030919 -0.0050944486 0.018151267 -0.0117547065 0.012392736 -0.035090122 0.038983732
-0.02693615 0.011674414 -0.0121729495 0.0063839755 0.0067460206 -0.015750436 -0.0008092378 0.03198048
-0.038293295 0.026080823 -0.044820815 -0.03825052 0.02777164 -0.004547656 0.02228428 -0.008099818
-0.041167937 -0.042686474 0.0367697 -0.023977192 -0.030259563 -0.012345411 -0.021371717 0.021364298

layers.11.weight f4 [84, 120]
00000000: 1988 92bc 9e01 123d ffb4 a73d 871e d2bd
00000010: 94b1 023b 8d96 e73c 6eb5 a0bd 61eb 833d
00000020: e29c 68bd 32d6 26bd 0a3c f63c 1683 103d
00000030: 0eb1 523d 5bc6 2ebb 6cc8 703c 5055 29ba
00000040: adfa 043d f66d f9bd 2e6d 07bd bdf9 4dbd
00000050: 59fc 8cbd 29ab 063c 4bdd 8cbd 78d3 33bc
00000060: ac35 4a3d 8b18 9bbd f1b8 38bc 1b79 81bd
00000070: 77cd 35bd 8e15 0cbd 05f6 843d 66ec f539
00000080: 2da7 083c 36b0 b93c 28d7 8f3b a4af a63d
00000090: 7b51 903d 94c2 d53c f3dd dfbb 0e37 b33b
000000a0: 54a6 16bd a346 86bd b496 7e3d 6d70 4a3d
000000b0: 3a3a 883d e163 85bd 0025 11bd 2a6b 873d
000000c0: 2275 eabc 0736 953a 3f90 063c e610 39bd
000000d0: c0d5 60bd 55f9 8f3b 6633 163d ef26 39bd
000000e0: 5a5f 78bc 43ea 073d f5f7 6a3d 43f9 a33d
000000f0: dc25 f23c cc60 e53c f635 053d f6dc 9a3d
00000100: 8e44 88bd f8d1 b23d 4cc8 a5bc 28c0 f9bd
00000110: 7f77 ba3d 0695 bc3b 47bc 5d3b a616 45bc
00000120: 4b25 e73d 963e 92bc 86aa a3bb 204c dfbd
00000130: 51e3 033d 1c2a 8dbd 1d17 85bd a7ba 0d3d
00000140: 4736 b33b 9dea 34bc 02cb 363d 5b73 703d
00000150: fae8 9ebd a253 97bd f9a3 90bc 9b6f 163c
00000160: c3d0 7a3d 1dc1 95bd 1775 ee3d b5ed 0abd
00000170: 7a15 02bc fc75 01bd 5556 25bd bdb6 853d
00000180: 69c1 483d b0db ef3d 2e6b acbb 61b4 b13b
00000190: 0ca1 afbc b243 46bd a325 843b b597 85bd
000001a0: bce7 893d 9bb1 aabb c0f4 de3a 2153 96bd
000001b0: 106c 91bd 1e77 2b3d 26b6 42bd 7d2a 1cbd
000001c0: 7555 95bc 310d a93d 08c1 303d 5c9c 59bd
000001d0: 9d8f 1d3d 2d47 c43c 902f 883d d068 7bbd
000001e0: 190e 94bd 03c3 913d 835d d2bb 706d 993d
000001f0: 7e58 1cbd 833b 783c c99a 95bc cfc9 9e3d
00000200: 80e5 593c 736f 353b 1b7f 4d3c a4aa fd3c
00000210: 770d da3d 95f5 f43c 8c43 913c de93 d8bd
00000220: ca64 86bd d383 f8bc 7b68 6d3c 9cef 733d
00000230: 6a09 60bd 3d8e 7e3c f0a2 19bd 4e53 09bc
00000240: 67b7 8a3d 4c2d 03be 88e9 86bd 7699 6a3d
00000250: 086c e53d e0be d8bd d886 d43c 3b17 22be
00000260: 4fbb 833c 01b6 9abd 3348 8f3d e945 f1bb
00000270: 6d07 1bbd 9c39 adbd 68b0 543c 54e8 b0bc
00000280: 29b6 9fbd d0ed 9bbd 57ea 723d 2c50 7cbd
00000290: 4648 03bd 8f37 a73d 5757 ee3c 77ed 9f3c
000002a0: 9cf0 14bd 31c0 193d b41f 183d 469b 2e3d
000002b0: f7d2 99bc db0b 243c 1018 e9bd af32 293c
000002c0: 0242 4f3c 25c2 9f3c 6b13 b03c 9ba8 b33c
000002d0: bfcb 8c3c 7a86 713d 3379 363d 46de cc3b
000002e0: c063 fd3d 2ac0 473d 3f17 41bd 3b2d cf3d
000002f0: 2083 7ebc e168 143c 9c4a 82bd 5b06 17bc
00000300: b3e6 68bd 7866 c6bc 9731 c6ba 78f1 d0bd
00000310: 6f11 c0bd 6d79 ae3a 5456 6bbb cd35 773c
00000320: 7ae3 86bc ee24 333b f697 25bd 8440 a13d
00000330: 7946 bbbd 4ab8 a9bd 9bd8 debc 5288 a43c
00000340: ba9b 3f3c 3f76 183d 4668 e2ba fc51 113d
00000350: 130e 313d 24f3 4bbd 7f43 9f3d 2085 a0bd
00000360: ad4d 83bc 0bd4 6f3d 7c40 0cbc 3bc8 433d
00000370: e29b 593d 27a4 2c3d 966a 7f3d 72fb 133b
00000380: 2d45 86bc b487 e3bc fe2a 11bd 1cdd b8bc
00000390: 282b fe3c b67e 3a3d 7c09 7b3c 8bdb 263d
000003a0: 908c 33bd 1af9 5abd 02be d23c f1e4 523b
000003b0: 0c96 0fbd ffb8 533c 4021 99bd 136e 7a3d
000003c0: d7ae ea3c 552f 85bd c4d7 dfba 53d1 cf3c
000003d0: afd1 3abd 08e8 62bd f42a 533d 2bd8 c23c
000003e0: abf7 bbbd 7c3d 8abd bab2 843d bc5c 3a3e
000003f0: 57d1 61bd b31a 5dba 897f 9d3b bd8c 5ebc
-0.017887162 0.035646074 0.08188819 -0.10259729 0.001994227 0.02827003 -0.07847105 0.06441379
-0.05679024 -0.040731616 0.030057926 0.035281263 0.051438384 -0.0026668522 0.014696222 -0.0006459551
0.032465626 -0.121791765 -0.033063106 -0.050286997 -0.06884069 0.008219519 -0.06878146 -0.010975711
0.04936759 -0.075730406 -0.011274562 -0.06321927 -0.0443854 -0.034200244 0.06492237 0.00046906172
0.008340639 0.022667032 0.0043896623 0.081389695 0.07046791 0.026093759 -0.0068318783 0.0054692095
-0.036779717 -0.06556442 0.06215544 0.049423624 0.06651731 -0.06513191 -0.035435677 0.06612237
-0.028620306 0.0011383899 0.008213102 -0.04518213 -0.054891348 0.0043937364 0.03667011 -0.045203146
-0.015159452 0.033182394 0.057365377 0.08006527 0.029559068 0.028000258 0.032522164 0.07561676
-0.06653701 0.087314546 -0.02023711 -0.12194854 0.09104823 0.0057550697 0.0033834146 -0.012029326
0.1128641 -0.017852109 -0.004994693 -0.109031916 0.032199208 -0.06892797 -0.06498549 0.034601834
0.005469117 -0.011042264 0.044627197 0.05870376 -0.077592805 -0.073889986 -0.017656313 0.009181882
0.061234247 -0.07312224 0.11643427 -0.0339181 -0.007939691 -0.03160666 -0.040365536 0.06528995
0.049012575 0.11711824 -0.0052618003 0.005423114 -0.021439098 -0.048404403 0.004032807 -0.065230764
0.06733653 -0.0052091605 0.0017010197 -0.07340074 -0.071006894 0.041861646 -0.04753699 -0.038126457
-0.018229226 0.08254469 0.04315284 -0.05312763 0.03846704 0.02395972 0.06649697 -0.061379254
-0.072292514 0.07117274 -0.006419839 0.07491577 -0.03817033 0.015150907 -0.018262284 0.07753336
0.013299346 0.0027684837 0.012542511 0.030965157 0.106470995 0.029902259 0.017732404 -0.105750784
-0.06562193 -0.030336296 0.014490242 0.05955468 -0.054696478 0.015536842 -0.037508905 -0.008381678
0.067732625 -0.12810248 -0.06587511 0.057275258 0.11202246 -0.105832815 0.025943205 -0.15829174
0.016080527 -0.07554246 0.06996193 -0.0073630703 -0.03784888 -0.08458254 0.012981512 -0.021595158
-0.07798416 -0.076137185 0.059305515 -0.061599895 -0.032051347 0.08164894 0.029094381 0.019522412
-0.036362275 0.037536804 0.03713961 0.04262855 -0.018777354 0.010012592 -0.11381543 0.010327025
0.012650015 0.019501755 0.021493634 0.021930983 0.017186997 0.058966137 0.04454918 0.006252083
0.123725414 0.048767246 -0.04714131 0.10116049 -0.015534192 0.009058208 -0.06361887 -0.009217824
-0.056860637 -0.024218783 -0.001512098 -0.102023065 -0.09378325 0.0013311334 -0.003590961 0.015088511
-0.016465891 0.0027335244 -0.040428124 0.078736335 -0.09144301 -0.082871035 -0.027202895 0.020084534
0.011694843 0.037222143 -0.0017273508 0.035478577 0.043226313 -0.049792424 0.07776546 -0.078378916
-0.01602825 0.05855183 -0.008560296 0.047798377 0.053127177 0.042148735 0.062357508 0.0022580293
-0.016390407 -0.02777467 -0.03544139 -0.02256637 0.031026438 0.045530997 0.0153220855 0.040736716
-0.043835223 -0.053460218 0.025725368 0.0032179917 -0.035055205 0.0129225245 -0.07477045 0.06114013
0.028647823 -0.065031685 -0.0017077853 0.025368368 -0.045610126 -0.055397063 0.051554635 0.023784718
-0.09178098 -0.067500085 0.06479402 0.18199438 -0.055131283 -0.00084344595 0.004806463 -0.013583359

layers.11.bias f4 [84]
00000000: b865 8dbd c7bd 8f3d a97a 8ebd 861d 89bd
00000010: 8a43 823d 5696 f63c f210 1fba fd0a 313d
00000020: bc8f cc3b 5e2c cb3c a568 aebd 06f3 5a3d
00000030: a157 5cbd 8c8e 82bd 0956 ccbd f4d9 fc3b
00000040: 49ef 283c c4c8 e4bc 423c 30bd a3a8 a2bc
00000050: 9147 34bd c1ea 253a 5c33 0c3a 9c21 83bd
00000060: ecab 0a3d 936d 103a c390 95bd e322 89bd
00000070: 9b6f 39bc 0454 453d e65a 023d b816 80bd
00000080: 917d acbc e1e3 7cbd e705 b2bd c8df 6fbd
00000090: d76b f6bb 144b 48bc 3bcf 99bd bb2f b83d
000000a0: fb38 36bd 9918 7a3c 7b90 cbbd 1bdd f73c
000000b0: 2b10 6f3d 465e b53d d6bf 2fbd 983d 0bbd
000000c0: f9ff 15bd 6600 fcbc 6c0b fc3c d2de a3bd
000000d0: 44ea 1b3d b0c8 81bd af25 43bd ff5a bfbd
000000e0: 9c7b 453d 2568 3e3c 1bd6 aa3d 2219 82bc
000000f0: b8f8 653c f099 8dbd 4a8b 31bd 432b d63b
00000100: d29c 473d ade6 c13d 6867 90bd c15a 99bd
00000110: 6e40 1fbd 5bfe 863d ff09 11bd 2aaf 84bd
00000120: 1234 46bd 728b 2bba d143 45bd 7e9c 113b
00000130: f017 9ebd b8cb bb3b d247 253c 94dc b23a
00000140: 7486 393d d0bd b8bd 7fbb 0e3c a4f1 b1bd
-0.06904167 0.07018619 -0.06956989 -0.06695084 0.06360538 0.030100983 -0.00060678937 0.04322337
0.0062427204 0.02480143 -0.08516053 0.05345442 -0.053794507 -0.06374845 -0.099773474 0.0077164117
0.010310956 -0.027927764 -0.043026216 -0.019855803 -0.044013564 0.00063292315 0.00053482293 -0.06402895
0.033855364 0.0005509492 -0.07303002 -0.06696107 -0.011318113 0.048175827 0.03182497 -0.06254333
-0.021055968 -0.06174076 -0.08692532 -0.058563024 -0.0075201797 -0.012224931 -0.07510229 0.08993479
-0.044487935 0.015264654 -0.09939667 0.030256798 0.05836503 0.08855872 -0.04290756 -0.033994287
-0.036621068 -0.030761909 0.030767165 -0.08001484 0.03806521 -0.06337106 -0.04764336 -0.09343528
0.048213586 0.01162151 0.083416186 -0.015881125 0.01403635 -0.06914127 -0.043345727 0.006535919
0.04873354 0.09467826 -0.07050973 -0.07488013 -0.038879804 0.06591483 -0.035409924 -0.064787224
-0.048389502 -0.00065439113 -0.048160378 0.002221852 -0.077194095 0.0057310723 0.010087924 0.001364606
0.04529424 -0.09020579 0.008711695 -0.086886674
