vision/mnist/le_net_5.pth (torch, 251712 bytes, 13 tensors)

layers.0.weight f4 [6, 1, 5, 5]
000000 9b c5 6e be 55 46 d5 bc 1e e9 0c 3c 4c a4 dc bd
       -0.23317568 -0.026034513 0.008600501 -0.10773525
000010 37 cf d8 bd e6 da 7a be 71 48 25 be bb 0b cb bd
       -0.10586398 -0.24497566 -0.16140915 -0.09914347
000020 8c dd 1e bd cf cc de 3d e1 df 6b be bd 69 e9 3d
       -0.038785502 0.10878908 -0.23034622 0.11397121
000030 61 ba 5b 3d 7c 18 18 3e e9 4a 34 3e 28 bc 62 3e
       0.05364454 0.1485309 0.17606701 0.22142088
000040 e3 47 55 3e fc 21 51 3e 77 a6 45 3e 88 6f aa bd
       0.20828204 0.2042312 0.19301783 -0.08322054
000050 e0 43 76 3e 22 b8 82 bc f4 49 b2 3d e2 c6 97 bd
       0.2404933 -0.015956942 0.08705512 -0.07410981
000060 1f 14 5d bd 0b 3b 9f 3e 4a 22 2b 3c 89 78 52 be
       -0.053974267 0.31099734 0.010445187 -0.20553793
000070 4a 1a a5 be 88 f7 84 be e7 d1 07 3e 52 2c 41 3c
       -0.3224662 -0.259701 0.13263665 0.011790352
000080 d4 53 f9 be 48 8c b6 be 54 72 3c 3e 88 46 24 3c
       -0.48696768 -0.356539 0.18402988 0.010026582
000090 cd be 4f be 0d 2e 00 bf 6d e6 8e 3d 6d 44 58 3e
       -0.20287628 -0.5007027 0.06977544 0.21119852
0000a0 5c 07 09 bd 98 08 55 be 6c 91 83 be 75 5d 4d 3e
       -0.033454284 -0.2080406 -0.25696886 0.20055182
0000b0 7a c0 32 3e 32 a0 57 3c 85 51 3c be 17 5a ac 3c
       0.17456236 0.013160752 -0.18390472 0.021039052
0000c0 26 89 1a be e2 53 52 3e 96 5c 42 3d a1 53 7c be
       -0.1509138 0.20539811 0.047451578 -0.24641277
0000d0 c9 9f 0e be 04 d4 a1 be 7c d0 79 bd f8 a1 ca bc
       -0.1392814 -0.31607068 -0.06098984 -0.024735436
0000e0 b0 a7 a4 bd 7a 24 81 3d 61 69 66 be ea cd 3d be
       -0.08039796 0.063057855 -0.22501136 -0.18535581
0000f0 d7 09 e9 3d b9 10 0a be 9e ee 4f bc 3a 24 4d be
       0.1137883 -0.13482942 -0.012691168 -0.2003335
000100 68 48 09 be 57 a8 a3 3d 95 df 1d be d4 fc 10 be
       -0.13406527 0.07991093 -0.15417321 -0.14158946
000110 c8 7e 7d bd aa 3c 9e bd 98 9d 9a 3c 79 73 a3 3d
       -0.061888486 -0.077264145 0.018873975 0.07981009
000120 55 69 31 bc 86 03 f8 3d 4d a8 5d 3e d7 71 d4 bd
       -0.010828336 0.12110047 0.21646233 -0.10373276
000130 89 34 76 bc 84 94 18 3d 47 58 10 3d 81 ad 0c 3d
       -0.015027174 0.03725101 0.035240438 0.034345154
000140 cd b3 a9 3c 3d ac a4 3e 96 80 73 3b 60 a7 81 3d
       0.020715619 0.32162657 0.00371555 0.063307524
000150 05 cb 3e 3e 32 e5 f7 bd cf 2b d8 bd 8f 24 0f 3e
       0.18632133 -0.121042624 -0.10555231 0.1397879
000160 07 46 54 3e 8e 67 a3 bc 4f 59 3b be 59 bd ae bd
       0.20729838 -0.01994684 -0.18295787 -0.08532209
000170 78 80 8b be 7a fa bd bd e7 10 b3 be 40 82 36 be
       -0.2724645 -0.0927629 -0.34973833 -0.17823124
000180 b3 da 0f 3e e2 2c 60 be 2e ad ea bd b6 43 40 be
       0.14048271 -0.21892121 -0.11458813 -0.1877583
000190 20 96 89 3d a1 4c 8b 3d ad 80 48 3e dd 8d bc 3c
       0.06718087 0.06801725 0.19580336 0.023016864
0001a0 58 55 a6 bd 2c 6e a4 bc eb ff b3 bc 98 f6 62 bd
       -0.08121747 -0.020072065 -0.021972617 -0.05541095
0001b0 03 fb 98 3c 66 54 14 be 00 0f a1 bd 3b dd 97 3a
       0.01867438 -0.1448532 -0.07864189 0.0011586318
0001c0 b5 57 ba bd 11 8a 07 be 82 57 9a 3b 0c 37 5f be
       -0.0909876 -0.13236262 0.004710139 -0.21798342
0001d0 5c 89 b1 bd c7 e1 be 3c e5 71 ab bd b7 0b 58 be
       -0.08668777 0.023301018 -0.08371333 -0.21098219
0001e0 30 d5 4b 3e 0d a0 3e 3e 45 b8 6c 3e a0 1d c4 3c
       0.19905543 0.18615742 0.23117168 0.023939908
0001f0 45 de 41 3d 14 ab 9f be 48 8c 1d be 3e 22 58 be
       0.047331113 -0.3118521 -0.15385544 -0.21106812
000200 1b b1 1a bd ed fb 7e be 99 54 38 bb 1c 0c b9 3d
       -0.037766557 -0.2490079 -0.0028126596 0.09035513
000210 0a b3 5d 3d 74 10 58 3c e5 c9 ae 3d 25 f7 27 3e
       0.054125823 0.0131875165 0.08534602 0.16402872
000220 3d b6 88 3e bc 96 99 3d d9 22 3e 3e ec 43 98 bc
       0.26701537 0.074994534 0.18567981 -0.018587075
000230 d8 9f 94 3d ce 6a 37 3e 72 df 9d 3e 29 34 d8 3d
       0.0725705 0.17911837 0.30834538 0.10556824
000240 6f ae 8c 3e 59 13 33 3c 96 98 9e 3d bc 7f 0d be
       0.27476832 0.010929906 0.07743947 -0.13818258
000250 f7 23 90 bd f4 49 1d 3e
       -0.0703811 0.15360242

layers.0.bias f4 [6]
000000 7e 93 32 be b1 bb cf bd 28 cf f0 3d dd 3c 25 be
       -0.17439076 -0.10143221 0.11758262 -0.16136499
000010 54 71 12 3e 4a 7d ac bd
       0.14301044 -0.084223345

layers.2.alpha f4 [6, 1, 1]
000000 68 66 49 3f cf c1 75 3f 16 69 3b 3f 73 8f 4a 3f
       0.78671885 0.95998853 0.73207223 0.79125136
000010 98 bf 2d 3f 63 94 52 3f
       0.67870474 0.8225767

layers.2.beta f4 [6, 1, 1]
000000 be 78 85 bb ba 10 94 3d cf 2a 94 3b 2e fd 09 bd
       -0.0040732315 0.07229753 0.0045217047 -0.033688717
000010 c9 0e 78 3d 5b b4 89 bb
       0.060560975 -0.0042024083

layers.4.w f4 [16, 6, 5, 5]
000000 00 00 00 00 00 00 00 00 00 00 00 00 00 00 00 00
       0.0 0.0 0.0 0.0
000010 00 00 00 00 00 00 00 00 00 00 00 00 00 00 00 00
       0.0 0.0 0.0 0.0
000020 00 00 00 00 00 00 00 00 00 00 00 00 00 00 00 00
       0.0 0.0 0.0 0.0
000030 00 00 00 00 00 00 00 00 00 00 00 00 00 00 00 00
       0.0 0.0 0.0 0.0
000040 00 00 00 00 00 00 00 00 00 00 00 00 00 00 00 00
       0.0 0.0 0.0 0.0
000050 00 00 00 00 00 00 00 00 00 00 00 00 00 00 00 00
       0.0 0.0 0.0 0.0
000060 00 00 00 00 00 00 00 00 00 00 00 00 00 00 00 00
       0.0 0.0 0.0 0.0
000070 00 00 00 00 00 00 00 00 00 00 00 00 00 00 00 00
       0.0 0.0 0.0 0.0
000080 00 00 00 00 00 00 00 00 00 00 00 00 00 00 00 00
       0.0 0.0 0.0 0.0
000090 00 00 00 00 00 00 00 00 00 00 00 00 00 00 00 00
       0.0 0.0 0.0 0.0
0000a0 00 00 00 00 00 00 00 00 00 00 00 00 00 00 00 00
       0.0 0.0 0.0 0.0
0000b0 00 00 00 00 00 00 00 00 00 00 00 00 00 00 00 00
       0.0 0.0 0.0 0.0
0000c0 00 00 00 00 00 00 00 00 00 00 00 00 00 00 00 00
       0.0 0.0 0.0 0.0
0000d0 00 00 00 00 00 00 00 00 00 00 00 00 00 00 00 00
       0.0 0.0 0.0 0.0
0000e0 00 00 00 00 00 00 00 00 00 00 00 00 00 00 00 00
       0.0 0.0 0.0 0.0
0000f0 00 00 00 00 00 00 00 00 00 00 00 00 00 00 00 00
       0.0 0.0 0.0 0.0
000100 00 00 00 00 00 00 00 00 00 00 00 00 00 00 00 00
       0.0 0.0 0.0 0.0
000110 00 00 00 00 00 00 00 00 00 00 00 00 00 00 00 00
       0.0 0.0 0.0 0.0
000120 00 00 00 00 00 00 00 00 00 00 00 00 3f f2 b7 be
       0.0 0.0 0.0 -0.35927007
000130 90 9e 05 bf 07 51 70 3f ab a8 7b bf 1b fb db 3f
       -0.5219507 0.9387364 -0.9830424 1.7186006
000140 51 96 04 bf 8b 51 4d bf 50 24 01 c0 7f 0b b3 be
       -0.51791865 -0.8020255 -2.0178413 -0.34969708
000150 fc fc d7 3f a1 f5 f5 bc de 1a 02 c0 d9 e9 a0 bf
       1.687408 -0.030024352 -2.0328898 -1.2571365
000160 8c 9e 85 bf 3a c8 9a bf af 3e 7b be 9a 15 14 be
       -1.043901 -1.2092354 -0.2453563 -0.14461365
000170 7d c6 aa 3f ac 7e 5f bf 20 20 96 be 1b 71 32 3f
       1.3341824 -0.8730266 -0.29321384 0.69703835
000180 8b a5 99 3f c5 3d 03 bf c2 b5 d2 be 5b 32 ce bf
       1.2003645 -0.5126613 -0.41154295 -1.6109117
000190 fe b5 77 3f e3 a6 a7 3e 31 0f bc bf ee eb b0 bc
       0.96762073 0.32744512 -1.4692136 -0.021596875
0001a0 33 6b a9 3e b7 e7 56 bf 1d 23 60 3e ca 4a 45 3f
       0.330896 -0.8394732 0.21888395 0.77067244
0001b0 cc ec 21 3e cd 77 14 3f 55 54 5c bf 08 b1 61 bf
       0.15812987 0.579953 -0.8606618 -0.88160753
0001c0 d7 93 b7 be 85 0d 8e be 85 9f 6e bf 02 26 7f 3f
       -0.3585498 -0.2774469 -0.9321216 0.9966737
0001d0 a7 98 c9 bd c2 ee 24 3f 1a 59 80 bf 83 e4 8e 3e
       -0.09843569 0.64426816 -1.0027192 0.27908716
0001e0 d4 8b 2f bf 27 03 7b 3f d3 14 b2 bf 6b 77 ed bf
       -0.68572736 0.98051685 -1.3912605 -1.8552068
0001f0 65 c9 02 3f 90 4f 0a 3f 1b e6 d2 bd 49 bf b2 3e
       0.51088554 0.5402765 -0.102977954 0.34911564
000200 df 9d 4d 3f 0b 64 d1 3d 6a 13 8a 3e b2 b4 51 3f
       0.8031902 0.1022416 0.26967937 0.81916344
000210 38 33 fe be be 69 21 3f fe 93 83 bf cf 1d 90 bf
       -0.49648452 0.63051975 -1.0279539 -1.1259097
000220 41 af 88 3f 36 5c 66 3f 09 43 13 40 26 9b 9a 3f
       1.0678483 0.8998445 2.3009665 1.2078598
000230 53 fa 24 bf 17 27 1c be 77 ba b7 bf ea 74 ba 3e
       -0.64444464 -0.15249287 -1.435378 0.36417323
000240 1f 35 83 3f e9 26 4b bf 3d 0a b6 3f 00 8b c0 be
       1.0250586 -0.7935625 1.4221874 -0.3760605
000250 e8 f2 68 be f3 68 fd bf 27 43 42 3e a8 88 9f bc
       -0.22748911 -1.9797653 0.18970929 -0.019474342
000260 a6 01 ef 3d 73 eb 29 3f 47 4d 41 3f 7b a1 d0 3c
       0.11670236 0.6637489 0.7550854 0.025467625
000270 27 33 f1 3c 22 3d 46 3e 1f 05 76 3f 34 35 3f 3f
       0.029443337 0.19359258 0.96101564 0.74690557
000280 1f 4b 0c be fd bb aa 3f 57 fa ee bc 11 87 2a bf
       -0.13700531 1.333862 -0.029172106 -0.66612345
000290 cd 52 c3 bd 01 95 69 bf 1a 24 b0 bf 36 00 19 3f
       -0.09537277 -0.91242987 -1.3761017 0.59765947
0002a0 a4 cb 06 bf 7a de 12 be 7d c0 c3 be 38 94 ba bf
       -0.5265448 -0.1434268 -0.38232794 -1.4576483
0002b0 1f 60 63 bf c1 32 fa bd 2b f1 9c bd 00 00 00 00
       -0.88818544 -0.12216712 -0.07663187 0.0
0002c0 00 00 00 00 00 00 00 00 00 00 00 00 00 00 00 00
       0.0 0.0 0.0 0.0
0002d0 00 00 00 00 00 00 00 00 00 00 00 00 00 00 00 00
       0.0 0.0 0.0 0.0
0002e0 00 00 00 00 00 00 00 00 00 00 00 00 00 00 00 00
       0.0 0.0 0.0 0.0
0002f0 00 00 00 00 00 00 00 00 00 00 00 00 00 00 00 00
       0.0 0.0 0.0 0.0
000300 00 00 00 00 00 00 00 00 00 00 00 00 00 00 00 00
       0.0 0.0 0.0 0.0
000310 00 00 00 00 00 00 00 00 00 00 00 00 00 00 00 00
       0.0 0.0 0.0 0.0
000320 00 00 00 00 00 00 00 00 00 00 00 00 00 00 00 00
       0.0 0.0 0.0 0.0
000330 00 00 00 00 00 00 00 00 00 00 00 00 00 00 00 00
       0.0 0.0 0.0 0.0
000340 00 00 00 00 00 00 00 00 00 00 00 00 00 00 00 00
       0.0 0.0 0.0 0.0
000350 00 00 00 00 00 00 00 00 00 00 00 00 00 00 00 00
       0.0 0.0 0.0 0.0
000360 00 00 00 00 00 00 00 00 00 00 00 00 00 00 00 00
       0.0 0.0 0.0 0.0
000370 00 00 00 00 00 00 00 00 00 00 00 00 00 00 00 00
       0.0 0.0 0.0 0.0
000380 00 00 00 00 00 00 00 00 00 00 00 00 00 00 00 00
       0.0 0.0 0.0 0.0
000390 00 00 00 00 00 00 00 00 00 00 00 00 00 00 00 00
       0.0 0.0 0.0 0.0
0003a0 00 00 00 00 00 00 00 00 00 00 00 00 00 00 00 00
       0.0 0.0 0.0 0.0
0003b0 00 00 00 00 00 00 00 00 00 00 00 00 00 00 00 00
       0.0 0.0 0.0 0.0
0003c0 00 00 00 00 00 00 00 00 00 00 00 00 00 00 00 00
       0.0 0.0 0.0 0.0
0003d0 00 00 00 00 00 00 00 00 00 00 00 00 00 00 00 00
       0.0 0.0 0.0 0.0
0003e0 00 00 00 00 00 00 00 00 db d5 bf bf 6c a1 1e bf
       0.0 0.0 -1.4987139 -0.6196506
0003f0 92 bc a8 3d ca c3 8e 3f 8c 0c a4 be 4f d5 c4 3e
       0.08239092 1.11535 -0.32040823 0.38443992

layers.4.b f4 [16]
000000 de f7 02 bd c9 74 21 bc c8 29 e1 3d 56 1d 44 bc
       -0.031974666 -0.009854504 0.10994297 -0.011969885
000010 ef a1 be 3c c7 04 f6 bd 99 24 fd 3c 3d 2d 41 3e
       0.023270575 -0.1201263 0.03090124 0.18864913
000020 02 44 b7 bd 0e 4a c1 3d 31 96 9c bc 6b f9 e2 bd
       -0.08948518 0.09437953 -0.019114586 -0.11082729
000030 35 70 8f 3d 33 15 be 3c 0c da ec bd 4b 07 9e b1
       0.07003824 0.023203468 -0.11565027 -4.5992343e-09

layers.6.alpha f4 [16, 1, 1]
000000 51 d6 e5 3e d4 88 c7 3e 5a 43 b6 3e 21 63 bf 3e
       0.44890073 0.3897158 0.3559826 0.37380317
000010 ae a2 b3 3e 39 5e d9 3e 23 76 c6 3e 2a 04 fc 3e
       0.35085052 0.424547 0.38762006 0.49221927
000020 6e 83 c4 3e 57 e1 02 3f 4e dc b8 3e b3 e6 cc 3e
       0.38381523 0.5112509 0.3610558 0.4001976
000030 fa ef cb 3e 68 fb ca 3e c2 8b 04 3f 58 e0 9d 31
       0.39831525 0.39644933 0.51775753 4.5948063e-09

layers.6.beta f4 [16, 1, 1]
000000 30 16 87 bf 9b b4 61 be 04 f7 a1 be e6 be 6d 3e
       -1.0553646 -0.22041552 -0.3163377 0.23217353
000010 4f 76 5e 3f ee 9a 15 be 37 90 22 bf 4e a2 29 be
       0.86899275 -0.14609882 -0.63501304 -0.1656582
000020 cc 2e 3d bf 11 eb d9 be 03 94 a6 3e ab 4f 33 bf
       -0.7389953 -0.42562154 0.325348 -0.7004344
000030 a0 5e da 3c 6f b3 83 bf 64 00 49 3f 0e 0a 2f 36
       0.026656449 -1.0289134 0.7851622 2.6082885e-06

layers.8.weight f4 [120, 16, 5, 5]
000000 47 0e c7 3a 3c 41 af 3c f1 a0 91 ba ca b1 3e 3e
       0.001518675 0.02139341 -0.0011110586 0.18622509
000010 bf 23 8b 3d cf e6 52 3e 94 55 02 3e 4e 68 ad 3d
       0.067939274 0.20595859 0.12727958 0.0846716
000020 a0 a5 8e 3d 27 a6 90 bd 9f 9d 4a 3e e6 56 e2 3d
       0.06965184 -0.07062941 0.1978669 0.11051731
000030 25 9a 82 3e 83 99 9b 3e d1 ad cd 3d 7e 06 89 3d
       0.25508228 0.30390558 0.100429185 0.066906914
000040 a4 89 d0 3c 6f a9 3e 3d 47 f6 c5 3d 20 61 97 3d
       0.025456257 0.046548303 0.09666114 0.07391572
000050 a4 1d e6 3d ae 58 23 3e d0 ed 8e 3e 2b b3 88 3e
       0.11236122 0.15951797 0.27915812 0.26699194
000060 b2 1e 27 bc 3f d5 86 3d 78 dd c3 3d 40 a6 ea bd
       -0.010200189 0.06583642 0.09563726 -0.11457491
000070 c8 be a6 3c 55 eb 13 3e 01 63 04 be c1 9c 41 3d
       0.020354643 0.14445241 -0.12928392 0.047268633
000080 12 61 c3 3c 62 b6 5f 3d b9 0b 14 be f9 c4 c9 bc
       0.023849998 0.054617293 -0.14457597 -0.024630057
000090 50 ec c4 bd b9 01 9e bc 13 19 0d 3d 20 c8 03 be
       -0.096153855 -0.01928793 0.03444774 -0.1286931
0000a0 c6 ba 03 3e c8 db 19 bd 38 89 8f bb 8e 8a 04 3e
       0.12864217 -0.037563115 -0.0043803714 0.1294348
0000b0 69 2e 99 b9 75 05 df 3b 6e a2 38 be e8 96 ad bc
       -0.00029217012 0.0068060705 -0.18030712 -0.021190122
0000c0 12 3a e6 3c e5 36 01 3e cc 97 af 3c 5d b5 9d 3e
       0.028103862 0.12618597 0.021434687 0.30802432
0000d0 31 4c fb 3b 67 63 d7 bc 60 09 35 3e 20 ea c0 bb
       0.007668995 -0.026292516 0.17679358 -0.005887285
0000e0 41 77 e5 3d f8 47 2f 3d 7a 3d 90 3e 5b 39 98 bd
       0.112043865 0.042793244 0.28171903 -0.07432815
0000f0 c2 b0 53 3c d7 3b 30 be 2a 6e e0 3d df b0 db bd
       0.01292056 -0.17210327 0.10958512 -0.10727095
000100 08 73 cb 3e 45 9a 2f 3d 5c 7b 45 3d 6c e6 84 3d
       0.397362 0.042871732 0.048213348 0.06489262
000110 14 b2 c6 3d 56 fa a6 ba 9f 2d be 3c 60 51 70 3d
       0.097019345 -0.0012739401 0.023215113 0.058671355
000120 08 61 9a 3d dc 03 b8 3d 9d 06 6c 3e 69 8b 77 3e
       0.075380385 0.08985111 0.23049398 0.24174275
000130 8c d4 bb 3c 8e 2a 0f be ec 84 9b 3d fe 44 b9 3d
       0.022928499 -0.13981077 0.07593712 0.09046362
000140 94 1c 6a bd 27 f2 09 3e 49 c7 5f be 8e 6b 8c be
       -0.05715616 0.1347128 -0.21853365 -0.27425808
000150 09 57 41 be 9f cb 48 3d 5f 79 93 3e a3 65 8c be
       -0.18880858 0.049022313 0.28803536 -0.27421293
000160 6f 4e 3d 3d 8e 30 88 bc ff 24 83 3d 82 0b 63 bd
       0.04621738 -0.016624715 0.06403541 -0.055430897
000170 69 bf 94 bd a6 62 48 3d 82 06 7e 3e 76 fa 86 bd
       -0.07263071 0.048922203 0.2480717 -0.065907404
000180 41 48 37 be 77 ad 34 3d d7 f5 37 3c 96 34 de 3c
       -0.17898656 0.04411074 0.011228046 0.027124684
000190 e2 61 5f 3d dd 62 99 be 4c d4 4f bd 92 48 33 bd
       0.054536708 -0.2995824 -0.05073957 -0.04377038
0001a0 c4 a7 7a bd 7c e4 5b 3d ca cc b6 bb f6 55 cc 3c
       -0.06119515 0.053684697 -0.005578612 0.024943333
0001b0 13 a1 ae bd 86 2d f4 3b 6e 2d be bc 5c 6e ea bd
       -0.08526816 0.007451716 -0.023215022 -0.11446831
0001c0 48 78 8e bd ff 79 c7 3d 0c 83 b0 bd 9c c1 10 bd
       -0.069565356 0.09740066 -0.08618745 -0.03534089
0001d0 bf 42 23 3d 96 94 57 be a2 b6 09 bd c1 6a 8d be
       0.039858576 -0.21052775 -0.033621438 -0.2762051
0001e0 a3 cc 22 bd b0 68 06 3c 00 5e 8a bd 40 e3 d4 3c
       -0.039745938 0.00820367 -0.0675621 0.025987267
0001f0 fa 58 0b be bf 0f 9d 3d fc 99 dc 3d 10 35 8a bd
       -0.1360816 0.07669019 0.10771558 -0.06748402
000200 e7 4e 69 bd 49 89 96 3c 9e 43 f6 3c 16 9f 7a 3d
       -0.056960013 0.01837601 0.03006154 0.061186872
000210 3f 05 a9 bb 4b c1 85 3d dd 13 ba bb 98 cb a6 bc
       -0.005158096 0.06531008 -0.0056786374 -0.020360753
000220 97 31 b4 bd c1 48 f2 bd 32 98 48 be b7 3d cc 3d
       -0.08798521 -0.11830283 -0.19589308 0.09972709
000230 af ff 21 3d f4 f9 97 be f1 e3 be 3d c9 a2 e4 bd
       0.03955048 -0.29682887 0.0932082 -0.11163861
000240 d1 1f 8d b8 a1 1d ce bc 4f 4f 93 3c 48 fa 63 3c
       -6.72933e-05 -0.025160613 0.017982153 0.013914652
000250 3a 30 1a bc 62 c9 75 bd a9 67 b9 be ae cc b7 bd
       -0.009410912 -0.060006507 -0.362119 -0.089745864
000260 30 80 40 bd 23 09 dc 3d b9 99 fa 3b 90 ac 5c 3d
       -0.04699725 0.1074393 0.0076477197 0.053875506
000270 47 42 29 bc b1 83 d3 3c df c7 c2 3d 18 9c c9 bb
       -0.010330743 0.025819631 0.09510779 -0.006152641
000280 73 f0 2e 3e f5 d5 fe bc 52 bd d7 3d 58 c4 03 be
       0.17083912 -0.031107882 0.10534157 -0.12867868
000290 e3 27 ce bb 82 26 1e be ca 67 99 bd 3f ed 96 bb
       -0.006291376 -0.15444377 -0.07490499 -0.0046059187
0002a0 d7 22 3f 3e 30 5b 81 3d 4e 3c 97 bd e5 64 39 bd
       0.18665634 0.06316221 -0.07384549 -0.045262236
0002b0 ef de 94 3b d0 55 c0 3d 21 61 a5 3e 88 66 79 3e
       0.0045431773 0.093913674 0.32300666 0.24355519
0002c0 e9 33 80 bc cc 39 a2 bc 0f 90 b9 3d 2e 0d 82 3c
       -0.015649753 -0.01980295 0.0906068 0.015875425
0002d0 d6 15 96 3e 98 11 77 3d 9e a7 71 3d 8f 67 d1 bd
       0.29313534 0.060319513 0.058997743 -0.1022483
0002e0 12 c7 3b be 28 20 05 3d 3f fd bd bd fa 0b 35 bd
       -0.18337658 0.03250137 -0.092768185 -0.044200875
0002f0 75 87 23 3e 0b 02 c2 3d bc 86 5a 3d 46 a2 0e be
       0.15969642 0.09473046 0.05335115 -0.1392909
000300 be 4c 03 3d f3 b2 19 be 82 86 ee bd a7 2c b1 3c
       0.03205561 -0.1500967 -0.11646749 0.021627737
000310 72 36 0f 3e 3b 4f 24 bd 60 7e 28 be bf 9a 9f 3b
       0.13985613 -0.040114623 -0.16454458 0.004870742
000320 5f 76 f5 3c ef 91 b4 3e 0c e9 ae 3d 96 7f 0f 3e
       0.02996367 0.35267588 0.08540544 0.14013514
000330 e1 b9 9f 3d aa f9 fc bd 4e 8a b8 3d 91 6b bf 3d
       0.077991255 -0.12352307 0.090107545 0.093466885
000340 d3 d3 a0 3c e7 f5 fe bc 46 1f 61 be 5c 43 12 3e
       0.019632256 -0.031123115 -0.21984586 0.14283508
000350 0b f5 c2 bc 84 21 b0 3d ae a4 fd bb a5 7a 57 bd
       -0.023798486 0.086001426 -0.0077405786 -0.052607197
000360 5b 57 b3 bb 90 ea 7f bc 8c aa ae bc 0e 08 5e 3c
       -0.00547306 -0.015619889 -0.021321557 0.013551725
000370 d8 04 03 bc 04 3a 38 3d 6e 26 39 3c 36 59 d3 bc
       -0.00799676 0.044977203 0.011300666 -0.025799375
000380 24 2f 23 3e bf 00 41 3e b1 e3 9d 3d 33 2d 5a 3d
       0.15935951 0.18847941 0.07709444 0.05326576
000390 b6 12 a0 3c a9 4f e8 3c 31 50 3f bd 54 66 24 3c
       0.019540172 0.028358297 -0.046707336 0.010034163
0003a0 6f b5 4d 3d a2 df be 3c 5c 8e ad 3d 76 95 a7 3d
       0.050221857 0.023299996 0.084744185 0.08182804
0003b0 b6 27 75 3d 5d 5d 16 3d dd 11 26 3d be 95 04 3d
       0.059852324 0.036710132 0.04054438 0.032369368
0003c0 b5 5c e2 3c c8 81 64 3d f1 eb 92 3d e2 af 8d 3c
       0.027632097 0.05578783 0.071739085 0.017295782
0003d0 30 e3 ab 3d 92 14 86 3d 2d 73 d8 3c a7 4c 3f 3d
       0.08392942 0.06546892 0.026422108 0.04670396
0003e0 1b 5a 97 3d ca a8 5b 3d 7a 4c a3 bd f6 b5 c1 3d
       0.07390233 0.053627767 -0.07973571 0.094585344
0003f0 02 93 b8 3d 67 ba 0f be b0 f6 de bd 4f 0d fa bd
       0.090124145 -0.1403595 -0.10886896 -0.1220957

layers.8.bias f4 [120]
000000 fc 3c 6b 3d b9 4f 71 bd 87 76 8b 3d 85 71 1b 3d
       0.057431206 -0.05891392 0.06809717 0.037950058
000010 9c 64 a6 bd 08 5a 7f bd dd fa 96 3d fd b0 84 bc
       -0.081246585 -0.06234172 0.07372067 -0.016197676
000020 7b c8 e4 bc a8 2b fa 3d 80 cc 83 bc ce cf 55 3c
       -0.027927628 0.12215358 -0.016088724 0.013050033
000030 01 40 9a 3c 5a 7c c1 3d 05 f0 52 3d 32 ac dd 3d
       0.018829348 0.09447546 0.05149843 0.10823859
000040 d7 c9 ba 3c 78 83 53 bd b7 15 c3 bc 12 42 e1 bc
       0.022801323 -0.05163905 -0.023814065 -0.027497325
000050 ef 72 7b 3d a6 6d b9 3d 06 93 1b 3c e9 1b 02 3d
       0.061388906 0.09054117 0.009495502 0.0317649
000060 85 87 e8 bd 2a 87 9d 3d fd 6b ba 3d e2 3c d2 3d
       -0.11353973 0.07691796 0.091026284 0.10265519
000070 5a 29 9f bc 92 1f 13 3e e5 f7 2c 3d c4 d1 32 3d
       -0.019428898 0.14367512 0.0422286 0.04365708
000080 3c bc 6e bd cd 01 2e 3d 41 ea 37 bd e3 8a b8 bd
       -0.058284983 0.042482186 -0.044901136 -0.090108655
000090 a8 50 a1 bc 93 a8 ff 3c ca be 06 3e 8a 06 ab bd
       -0.01969178 0.031208312 0.13158718 -0.083508566
0000a0 ca 31 32 3d 46 60 29 3d c5 2d a7 bd 18 d9 b8 3b
       0.043504514 0.04135158 -0.08163027 0.005641114
0000b0 17 5b 1f bd f8 d3 16 bd ef b6 f9 3d 4e c0 b3 3d
       -0.03890523 -0.036823243 0.12193095 0.087769136
0000c0 9a 66 8d 3d 00 a8 18 bd 2f 81 bc 3c c6 15 a3 3d
       0.06904335 -0.037269592 0.023010818 0.07963137
0000d0 1f 51 50 3d 6d 53 9a 3c 80 94 93 bd 8b b1 b4 bd
       0.050858613 0.018838609 -0.072060585 -0.08822926
0000e0 88 fc 67 bd ac f4 56 bd 7e 2e c7 3d 20 a4 a6 3d
       -0.056637317 -0.05247943 0.097256646 0.08136773
0000f0 be ad 53 bb 3c 8e c0 bd 6a f7 a9 bc 9b 43 b7 bd
       -0.0032299603 -0.09402129 -0.020747859 -0.089484416
000100 c1 23 af 3c b1 5a d8 bd ff 6c f0 bd 1d 0c 4a 3d
       0.021379353 -0.10564173 -0.11739539 0.04932796
000110 51 51 8a 3c 7a b1 bc bc 0d ed 02 3d 6f 8b dc bd
       0.016884478 -0.023033846 0.03196435 -0.10768782
000120 91 59 47 3d ac e0 ab 3d a2 6c ee bd 64 03 e7 3d
       0.0486694 0.08392462 -0.11641814 0.112799436
000130 a5 2e 71 bd 7a 4d 5c 3d 52 40 07 be 9d 34 6d 3c
       -0.058882374 0.053784825 -0.1320813 0.014477876
000140 5f a2 4d 3d 33 a3 33 3d cb 3b 99 bd 69 fa 59 bd
       0.050203677 0.04385681 -0.07482108 -0.053217325
000150 ea 4d c4 bd ae 41 a3 bd 87 f7 7d bd db fc 39 bd
       -0.095851734 -0.07971512 -0.06200364 -0.045407157
000160 ac 51 bf 3c 09 c2 00 3e a2 e1 4e 3d 1b 20 9d 3d
       0.023354374 0.12574019 0.05050815 0.07672139
000170 d4 92 9b 3c 3f 54 8f bd 94 41 0a be 66 15 d7 3d
       0.018990912 -0.069984905 -0.13501579 0.10502128
000180 f5 9d 28 bd d6 7e e3 3c 17 fa 35 bd 9c 02 9e bc
       -0.041166265 0.027770441 -0.044427957 -0.019288354
000190 a4 47 45 3d f7 32 01 bd c0 4d 68 bd 95 cb 9d bc
       0.048164025 -0.031542744 -0.056714773 -0.019262115
0001a0 ba 50 01 3e df 3d 93 3d e1 a2 a2 bd 8d 83 26 bd
       0.12628451 0.07189535 -0.07941223 -0.0406528
0001b0 69 0f 38 bd ff da db bc 0a 60 5b bd 5c 12 53 3a
       -0.04493657 -0.026837824 -0.053558387 0.0008051747
0001c0 de fa 22 3e 00 cc 91 bd b4 25 eb 3d 25 93 87 3d
       0.1591601 -0.07118988 0.11481801 0.066198625
0001d0 ca a5 5d bd a7 ea 0e be 3e 93 72 bd fc 0f cd 3c
       -0.054113187 -0.139567 -0.059222452 0.025032036

layers.11.weight f4 [84, 120]
000000 fb 7d 00 bd 7b 71 76 bb 8c c0 80 bc a8 83 de 3c
       -0.031370144 -0.003760426 -0.015716814 0.027162388
000010 23 33 31 3d de be 65 3d 16 4e 6d bc d2 5a 89 bc
       0.04326166 0.05609023 -0.014483949 -0.01676694
000020 9a 95 d0 bb 3a 59 22 bd 59 0a b8 bc 8d dc 66 bb
       -0.00636549 -0.039635874 -0.022465872 -0.0035226673
000030 5b 98 70 ba 0b 8b 24 3c 46 2f 11 3c 06 d6 ac bd
       -0.0009177976 0.010042916 0.0088613685 -0.08439259
000040 07 19 9c 3b b1 2a e2 bc 4d 53 d9 3c 95 b0 63 bc
       0.0047637257 -0.027608247 0.026528979 -0.013897081
000050 e0 08 de bc 21 5f 35 3c 70 4d 3e bb 29 f3 d0 3c
       -0.027103841 0.011070044 -0.0029037856 0.025506573
000060 64 81 37 bc d0 39 4e bd 62 c0 48 3d 0f 24 d2 bc
       -0.011200283 -0.050348103 0.049011596 -0.02565196
000070 1e 81 ed b9 00 cc 83 3b 06 e6 a8 bc ae c7 75 3c
       -0.00045300362 0.0040221214 -0.020617496 0.015001221
000080 06 9d 98 bc 14 07 73 3c 15 f7 14 3d 4b 77 10 bc
       -0.018629562 0.0148332305 0.03636845 -0.008817504
000090 66 b9 c8 3b e9 92 99 bc 9b 9b e0 3c 51 55 3d 3d
       0.006125617 -0.01874681 0.027417948 0.046223942
0000a0 ee 3d de bc 49 3e 69 ba 3c 91 da bc cb 4e 85 3b
       -0.02712914 -0.0008897526 -0.026680581 0.0040682307
0000b0 ba f8 83 bd 02 4f 99 3a d2 cb b4 bc a6 16 8d 3d
       -0.06443925 0.001169652 -0.022069845 0.068890855
0000c0 39 b7 00 3d bf 43 37 bc 52 c8 73 3a 9b 05 27 bd
       0.031424735 -0.0111855855 0.00092995644 -0.04077683
0000d0 82 40 56 bc 44 29 c6 3b 84 bb f2 bb 5b 99 a7 3c
       -0.013076903 0.0060473997 -0.0074076075 0.020458868
0000e0 e6 1d 1e 3d d7 ff e8 3c fc 48 58 bd 5c d6 8a 3c
       0.038602732 0.028442306 -0.05280398 0.016947918
0000f0 74 d6 c1 3b a4 10 e2 bb ff aa 57 bc f0 83 2a bd
       0.0059154574 -0.0068989564 -0.013163327 -0.04162973
000100 3e 91 38 3b 43 9e 37 3d ad 18 86 bd ec da 93 3c
       0.0028162743 0.044828665 -0.06547675 0.018048726
000110 18 56 af 3c 53 c1 f0 bc c6 9d 4f ba 0d 0d d9 3c
       0.021403357 -0.02938906 -0.00079199334 0.02649548
000120 9e bd 85 bd 0b 6e 74 bd ba d6 19 ba cb 71 b2 3b
       -0.06530307 -0.059675258 -0.00058684836 0.005445694
000130 bc cd 9d 3c 8b af 06 3d ae 2c 9f 3d ba 28 78 3c
       0.01926314 0.032882255 0.07772194 0.015146429
000140 50 03 69 bc 7b 50 be bd 32 ac bb bb a2 55 1f 3c
       -0.014221981 -0.09292694 -0.0057273144 0.009725006
000150 cc 96 41 bb 32 6c 6d 3d f0 b8 45 bd cd 37 67 3c
       -0.0029539345 0.05796451 -0.048272073 0.014112425
000160 3f d8 8f bc e2 31 27 3a 4e dc 2f bc cc a5 c2 3b
       -0.017559169 0.00063779776 -0.010733677 0.0059401747
000170 22 80 24 3c af 05 54 3c c7 30 03 bc 1b 87 df 3c
       0.010040315 0.012940808 -0.008007235 0.027286103
000180 08 8c 68 bd 51 b5 f7 bc 45 da 58 3c 3e a5 4e bb
       -0.05677417 -0.030237826 0.013235633 -0.0031531597
000190 bb b6 69 3b b1 b2 5c 38 38 10 f8 ba e1 31 c2 3b
       0.0035661894 5.2618507e-05 -0.0018925732 0.005926356
0001a0 6a 8e 90 3b 1b 3e c8 3a 14 f8 f3 bb 74 ad c4 bc
       0.0044115083 0.0015277298 -0.0074453447 -0.02400849
0001b0 d8 54 cc bb dd 05 84 3b 7d 72 b4 3c 8a a7 ea bb
       -0.0062357 0.0040290193 0.022027249 -0.0071610855
0001c0 cd 71 ab 3c bc c9 11 bd 48 04 13 3d d6 bd 15 3d
       0.020928288 -0.03559278 0.035892755 0.036557995
0001d0 9b ca 8c bc b8 d5 92 bd fe 3f 3c bc 82 5b c9 bb
       -0.017186454 -0.0716967 -0.011489866 -0.006144942
0001e0 09 55 85 3d a0 75 06 bb 4d fd 39 39 6e 45 0a 3d
       0.0651036 -0.0020516887 0.00017737337 0.03375762
0001f0 80 66 a3 3b c0 ad 60 bd 75 30 f5 bc 4d 0f 31 3b
       0.004986584 -0.0548532 -0.029930333 0.0027017177
000200 64 b5 ef 3b 48 35 37 3d 74 c0 aa b9 6e c5 d2 bb
       0.0073153246 0.044728547 -0.00032568316 -0.006432227
000210 ed 95 a9 ba ba e5 26 bc 68 7f ac bb a6 71 46 bd
       -0.0012938358 -0.010186607 -0.0052642114 -0.048448227
000220 fc 78 00 3b cc b9 bf 3c dd e5 92 3c 69 ed fb 39
       0.0019603362 0.023404025 0.017931873 0.00048051335
000230 69 9f 31 3c 83 21 a4 3b c9 0f 55 39 0e bd c8 3d
       0.010841229 0.0050088777 0.00020319143 0.09801684
000240 47 96 22 bd 61 b3 a3 bc fe 83 d7 3a 8c af ec bc
       -0.039694097 -0.019982995 0.0016442535 -0.028892301
000250 99 1c 36 39 1d 1a ab bd c2 c1 ec bb 74 9e f4 3b
       0.00017367526 -0.0835459 -0.007225246 0.007465178
000260 31 1b 2d bd bd 10 a3 ba 62 0b 92 3c 08 f2 ec b9
       -0.04226226 -0.0012440901 0.017827693 -0.00045193755
000270 d0 e1 37 3b a7 30 a7 bc fd 9b 45 bb 58 9c 11 3d
       0.0028058179 -0.020408941 -0.003015279 0.03554949
000280 fd a4 18 ba ca 9b ac 3b 2c 3f 02 bd 4b e8 33 3c
       -0.0005822925 0.005267595 -0.031798527 0.010980676
000290 27 4e 57 bd e6 b3 ca 3c 73 aa 0f bd b4 18 fc 3c
       -0.052564766 0.024743985 -0.035074662 0.030773498
0002a0 0c 5c 0b 3d 89 47 b6 3a a8 5d bf bc 5e 79 af bc
       0.03402333 0.0013906817 -0.023360088 -0.021420177
0002b0 b5 05 7f 3d 95 db 4b 3c 54 85 9a bc eb dc 5d bc
       0.062261302 0.012442489 -0.018862404 -0.0135414405
0002c0 ec bb 34 3c 2b c6 a6 bd 61 9c 0c 3d 8e f7 47 3c
       0.011031132 -0.08143266 0.034328822 0.012205018
0002d0 28 3f ed 3b 64 2d d7 3c 5e 1c 0d bc d8 1f c5 bb
       0.007240195 0.026266761 -0.00861272 -0.006015759
0002e0 65 ca 78 3b 2d 93 fe bc 77 c5 76 3d d8 69 ab 3c
       0.0037962433 -0.031076038 0.06024691 0.020924494
0002f0 40 e5 ed 3a 39 84 bf bc 10 25 fb 3b a9 01 4a bd
       0.0018149987 -0.023378478 0.0076643303 -0.04931799
000300 11 b2 41 bd 64 b8 0d bd 85 44 d0 bb 98 60 aa b7
       -0.047288958 -0.034599677 -0.0063558244 -2.031056e-05
000310 ec 89 c8 3c d0 9c 43 bd 74 aa 1a 3d 50 b1 43 3d
       0.024479829 -0.04775697 0.037760213 0.04777652
000320 02 11 c8 bb 41 b8 48 bd 3c f6 14 3d c5 bb 48 bc
       -0.006105543 -0.049003843 0.03636764 -0.012251799
000330 d9 55 a4 bb e1 5d 6f 3c ca 6c 9c bc 16 33 d2 bb
       -0.0050151167 0.014609785 -0.019094843 -0.0064147813
000340 83 a2 7f 3d 79 2e f7 bb 8f cc a9 bb c0 d4 2b bc
       0.062410843 -0.007543382 -0.005181856 -0.010487735
000350 25 1c 5c 3c 1c f8 bb bc 53 b5 90 bd 9e bc 19 bd
       0.013434445 -0.022945456 -0.07065835 -0.037533395
000360 e9 64 ed 3c 1b b5 ac bb 1e e3 a5 bc 80 ee ee bb
       0.028978782 -0.005270613 -0.0202499 -0.007291615
000370 ac c2 04 3a 09 70 a8 bc 7a ed ed 3b d6 21 84 bc
       0.0005064409 -0.020561235 0.0072609754 -0.016129415
000380 30 54 6c 3d c9 95 be 3c b1 52 26 bd b9 4f 09 3c
       0.057697475 0.023264783 -0.040606204 0.008380824
000390 78 fb 9a 3c 98 bc 92 3b 25 cc 86 3d d6 c3 80 3b
       0.018918738 0.0044780485 0.06581906 0.0039295955
0003a0 87 44 bf 3c a9 a0 f6 3c 89 70 bd bc 98 9d 0a bc
       0.023348106 0.030105906 -0.02312495 -0.008460425
0003b0 05 aa 50 bc ce 03 38 bd 4b 2c e3 3c 02 9a d9 bc
       -0.012735848 -0.044925503 0.027731081 -0.026562694
0003c0 08 42 5c bd c1 1d 1a b9 a6 14 3d bb 00 a2 13 3d
       -0.05377391 -0.00014697669 -0.0028851419 0.036043167
0003d0 6a 86 67 bd df df b4 3c 94 13 12 bd 8e fd 11 3c
       -0.05652467 0.022079406 -0.035663202 0.00891055
0003e0 b6 31 d0 bc e9 98 57 3d bb b4 09 3c 04 2a 28 bc
       -0.025414329 0.05263606 0.008404906 -0.010263924
0003f0 56 5f f8 3a 8f 0d 34 3c 8e f1 20 3a fd ff 49 3d
       0.0018949311 0.010989561 0.000613951 0.049316395

layers.11.bias f4 [84]
000000 bc 6d c1 bc a7 b9 f6 3c 47 37 1b 3d 49 7e 55 3d
       -0.023611896 0.030117823 0.037894513 0.052122388
000010 ae e3 6d bc bd ec 27 bd 31 9c 74 bc 23 a5 9f bd
       -0.014519615 -0.040997256 -0.014929817 -0.07795169
000020 ad 93 07 bd a5 c9 0b 3c 2e f5 ee 3c 06 fd 9d ba
       -0.03309982 0.0085319625 0.029169645 -0.0012053556
000030 19 df 9b 3c c7 f8 65 3c b8 1b ae bc 79 cf b4 bc
       0.01902728 0.014036364 -0.021253452 -0.022071587
000040 2d 19 15 3d 9c b8 25 3d cf a0 ed 3c a9 8b 96 bd
       0.036400963 0.04045926 0.029007344 -0.07350857
000050 df bd 7e 3d a9 e1 21 3c ff ad ec bb 00 4f 1f 3d
       0.062192794 0.009880462 -0.0072228904 0.0388937
000060 ea 05 2d 3c 89 31 78 bd 11 8b ab bc d0 8f 56 3d
       0.010560492 -0.060594115 -0.020940335 0.052383244
000070 c9 96 b0 3c 16 b9 8c 3d ab e9 f9 3a d7 c4 d1 bc
       0.021556275 0.0687124 0.0019066831 -0.025606556
000080 fd f5 1f bd 75 61 4e 3d 86 cd e8 bc b3 51 6d bc
       -0.039052952 0.05038591 -0.028418314 -0.014484811
000090 e6 0e 85 bb 0b 54 13 bd e7 67 27 bd ff 3f 1d bc
       -0.004060614 -0.03596882 -0.040870573 -0.009597777
0000a0 a6 d4 0f bd d6 01 8e bd 03 ec 46 3d 12 1a 13 bd
       -0.035114907 -0.06933944 0.048564922 -0.035913534
0000b0 3e 6d 35 3a c5 d3 12 bd 8b b6 14 bc 7e a7 38 bd
       0.00069208804 -0.03584649 -0.009076725 -0.045081608
0000c0 35 37 1a 3a e7 cd 2e bd 73 13 a5 3c 82 5a e7 3c
       0.000588286 -0.042676833 0.020150876 0.0282414
0000d0 a4 0f 83 bd 8e d0 89 3d 79 1a 5c bc 71 a7 6f bd
       -0.063994676 0.06729232 -0.013434046 -0.058509294
0000e0 8d 33 f0 bc d0 8c e8 3b 50 b6 1e 3b 51 2c 63 bd
       -0.029321456 0.0070968643 0.0024217553 -0.055462185
0000f0 32 46 a4 bb f2 e2 83 bd a0 27 13 3d a4 a6 a7 bc
       -0.0050132507 -0.06439771 0.03592646 -0.020465203
000100 4b 0b 21 bc bd 12 b1 3d f5 67 1c 3d bb 74 e1 3c
       -0.009829353 0.08646152 0.03818508 0.027521482
000110 37 84 2a bd 76 27 b6 3c 65 e9 4e bd db de a9 bc
       -0.041629996 0.022235613 -0.05051555 -0.020736149
000120 40 d6 60 3d 56 14 61 3a 95 ca a0 bd 19 11 b5 bc
       0.054891825 0.0008586099 -0.078511395 -0.02210288
000130 1e b9 89 3c aa 80 7f bc d1 f8 32 3d af 93 6c bc
       0.016811904 -0.015594641 0.04369432 -0.014439507
000140 ee ce 8a 3c b5 f2 43 bd ae bc 3e 3c 96 a7 44 3d
       0.016944375 -0.047838885 0.011641664 0.048011385

layers.13.W f4 [10, 84]
000000 18 44 0a bf b9 c2 2c 3f 5c d2 3b 3f 9d 49 72 3f
       -0.5401015 0.67484623 0.7336786 0.94643575
000010 e7 4d 80 3f 5f 75 2e 3f ff fb fe be d8 df 20 bf
       1.0023774 0.68147844 -0.49801633 -0.6284156
000020 c1 cb be be 97 33 20 bf 44 9c 3a bf 82 5c ff be
       -0.37264827 -0.6257872 -0.7289469 -0.49875265
000030 d3 4f b9 be 17 06 6a be 90 95 9d be 53 87 cb bd
       -0.36193714 -0.22853886 -0.3077817 -0.099379204
000040 b3 ce 95 3e cb ff 82 3e f6 00 bc 3e ce 74 1a be
       0.2925926 0.2558578 0.36719483 -0.1508362
000050 80 21 ae be 8e 59 36 be 14 1d da 3e d5 7b 3b bc
       -0.34009933 -0.178076 0.4260031 -0.011443098
000060 46 43 fb be 4b 3a 81 3e 98 c9 d7 3e e5 90 f5 be
       -0.49074763 0.25239787 0.4214599 -0.47962108
000070 0e ca ba 3e e7 de 75 3e 84 39 ad be 8d d6 34 be
       0.3648228 0.24010812 -0.33832943 -0.1765997
000080 b2 50 c1 bd 38 75 e2 3e 51 f8 30 3e ac ec d7 3d
       -0.094392195 0.44230056 0.17282225 0.105431885
000090 ef 54 9b 3e 12 1d 04 bf be 4d 99 be 5d ee 26 be
       0.30338237 -0.5160686 -0.29942125 -0.16301866
0000a0 f3 24 de 3e 5c 4a 9f 3e cd f2 2f 3e 6e 0e 8d 3e
       0.43387565 0.3111142 0.17182465 0.2755007
0000b0 52 f4 d4 be 6b d6 ab be 32 a0 9b be 37 10 b8 3e
       -0.41592652 -0.33562025 -0.30395657 0.3594987
0000c0 80 3a be 3e 2c 73 2e 3e aa 1c 18 3e 25 bc 2a bf
       0.37154007 0.17036122 0.14854684 -0.66693336
0000d0 3e 58 05 bf 9d 10 2e bf a7 2b dc 3e 45 ab b6 3e
       -0.5208777 -0.679941 0.43002054 0.35677543
0000e0 53 5e 29 be e8 f7 0b 3e e7 f4 11 3e f7 95 0e bf
       -0.16539888 0.13668787 0.14253579 -0.5569758
0000f0 c3 fd 47 3e ba 1d 07 3f c9 66 b6 be 46 6d 11 bf
       0.19530396 0.52779734 -0.35625294 -0.56807363
000100 0d 64 65 ba f7 9e 8c 3f c6 48 87 3f 4c ee 53 3f
       -0.00087505655 1.0986012 1.0569084 0.8278549
000110 0e 0d 34 be c5 9b 1e bf ed c8 92 bf 33 ac 72 bf
       -0.17583105 -0.61956435 -1.1467568 -0.94794005
000120 34 60 90 bf d4 b3 82 bf 71 c8 7f bf aa 96 70 bf
       -1.1279359 -1.0211129 -0.99915224 -0.93979895
000130 6a e3 7a bf 0a 70 87 bf 0b e2 88 bf 96 e8 8d bf
       -0.98003256 -1.0581067 -1.0693983 -1.1086605
000140 88 fa 7e bf d2 fc 85 bf 4c 96 6e bf 3e fc 77 bf
       -0.9960103 -1.046778 -0.93198085 -0.96869266
000150 31 6e 06 bf 4c f5 28 bd 54 63 f6 3d 4e 5e 7b 3f
       -0.5251189 -0.04124956 0.12030664 0.9819077
000160 29 00 84 3f d7 cc 4c 3e dc e8 23 bf b2 b7 11 bf
       1.0312549 0.20000015 -0.6402719 -0.5692092
000170 17 87 50 be af c4 ea 3c 9f 36 54 be d4 ac 46 3c
       -0.20364033 0.02865824 -0.20723961 0.012126166
000180 f6 f5 98 be ea de a6 be 4e d0 9a be 76 bb a4 3e
       -0.29875153 -0.32591945 -0.3023705 0.3217427
000190 27 b9 fc bc 2f cf cf 3c 85 99 f2 3c 9e 29 38 be
       -0.030850006 0.025367348 0.02961422 -0.17984626
0001a0 b4 06 8b be 52 68 27 be ec e7 b9 3d c8 da 00 bf
       -0.27153552 -0.16348389 0.09077439 -0.50333834
0001b0 ea c6 1e be 0c 61 e5 3c 51 ad c3 bc 94 4f 5a be
       -0.15505567 0.028000377 -0.023886355 -0.21319419
0001c0 73 fa c4 be d9 4e ad bc 29 5d 82 bd 20 bf af 3e
       -0.38472328 -0.021155762 -0.06365425 0.34325504
0001d0 b3 23 97 3e bc e1 08 3c f3 f0 a9 be e4 2f 28 be
       0.29519424 0.0083546005 -0.33191642 -0.16424519
0001e0 bc 2a 2b 3c c4 3e 81 be a9 85 a5 3d 3e d7 e5 3d
       0.0104472 -0.252432 0.08082134 0.11222695
0001f0 d7 a1 34 bd 03 fc c2 bc 58 be 00 be b7 d1 61 be
       -0.044099655 -0.02380181 -0.1257261 -0.22052656
000200 52 21 c6 be d2 86 af ba 4d c5 ec bb 6e 26 55 3d
       -0.38697296 -0.001339162 -0.0072256685 0.052038603
000210 89 34 38 3d f1 b6 16 be 28 1e 20 be 6d d7 26 bf
       0.044971976 -0.14718224 -0.15636504 -0.65172464
000220 55 7d e8 bd e1 8b 0b be dd ec 5e bb b3 1d 26 bb
       -0.1135203 -0.13627578 -0.0034015693 -0.0025347292
000230 5c dd 77 bd 2b ae 12 bd 98 c5 a6 be 8e af f9 bc
       -0.06051384 -0.03581063 -0.32572627 -0.030479219
000240 84 f7 bc 3d 6a 92 0a bd c9 35 35 bd a2 ae 08 bf
       0.09226897 -0.033831038 -0.044240747 -0.5339147
000250 2e 92 1d 3f 9d a2 7a 3f f2 d6 7e 3f ba 2d 3f 3f
       0.6155118 0.9790438 0.9954673 0.7467915
000260 9f 07 cc 3e 27 c8 d8 3c d5 70 88 bf 81 78 84 bf
       0.39849564 0.026462628 -1.0659434 -1.0349275
000270 f6 0a 8a bf a0 c1 82 bf 5a e9 87 bf e2 e2 3c bf
       -1.0784595 -1.021534 -1.0618088 -0.73783696
000280 55 24 37 bf 15 33 86 bf a9 3c 82 bf ff 7b 8e bf
       -0.71539813 -1.0484339 -1.0174762 -1.1131591
000290 63 48 77 bf a7 37 8a bf 5a 2d 44 bf b7 b7 3d bf
       -0.9659483 -1.0798234 -0.766317 -0.7410845
0002a0 01 cb f7 be 0c 52 01 3f 00 b1 35 3f 89 8d 7e 3f
       -0.48397067 0.5051582 0.70973206 0.99434716
0002b0 2e 21 8a 3f e7 20 39 3f 81 15 c1 be 92 73 35 bf
       1.0791376 0.7231583 -0.3771172 -0.7087947
0002c0 9c 9e 9f be dd f8 07 bf 1c d9 30 bf 7d 5d 20 bf
       -0.31175697 -0.5311411 -0.6908128 -0.6264265
0002d0 36 1b 66 be 27 b6 8d be e2 01 b3 be 41 54 8c 3e
       -0.22471318 -0.27678034 -0.34962374 0.2740803
0002e0 a1 dc fd 3d 5e 28 e7 3d 01 0a c2 3e b2 b1 37 3e
       0.12395597 0.11286996 0.37898257 0.17938879
0002f0 8c cd 06 bf 9f ff 18 3e 3d c4 97 3e 4e 40 08 bf
       -0.5265739 0.14941262 0.29641905 -0.5322312
000300 99 e1 09 bf 90 66 58 be d1 57 a0 3e 57 c1 37 3e
       -0.5385986 -0.21132874 0.31317 0.17944847
000310 b6 5b 16 3e a5 47 aa be 1a 0b 68 be 58 3b 26 bd
       0.14683422 -0.33257785 -0.22660485 -0.04058394
000320 c2 09 9f bd d3 04 f1 3e 6d c5 50 3e fe e0 58 be
       -0.07765533 0.47073993 0.20387812 -0.21179578
000330 f3 13 a0 be 49 b9 24 bf 4a ab c6 be 47 15 12 3e
       -0.3126522 -0.6434522 -0.38802558 0.14265929
000340 19 ba 0a 3f 91 92 e5 bd a6 b0 8b be 3a b6 c0 be
       0.5419021 -0.11209596 -0.2728321 -0.37639028
000350 36 61 c9 3c be b4 bf 3d 9a 3e 33 3d 24 6f 9d bd
       0.024582487 0.09360646 0.043760873 -0.07687214
000360 9d 1a 51 bd 33 55 8e be 2d c7 9b 3e 67 cc ad 3d
       -0.05105077 -0.27799377 0.30425397 0.08486252
000370 2a 1a e6 be 76 77 4f bf ac 59 14 be bb 21 ae bd
       -0.44941837 -0.8104166 -0.14487332 -0.08502527
000380 5d e2 84 3e 2f 0e 9f 3e 65 7a ad be 4b f4 05 bf
       0.2595395 0.3106551 -0.33882442 -0.52325886
000390 58 93 da be 29 cb d1 bd b3 ad 21 be ab af 32 bc
       -0.4269054 -0.10243828 -0.15788917 -0.01090614
0003a0 59 64 0f 3f 13 db 88 3f e6 88 76 3f 11 c0 54 3f
       0.56012493 1.0691856 0.9630264 0.8310557
0003b0 99 14 da 3e ed 52 59 3e 89 cf 90 bf 7b 3c 8b bf
       0.4259384 0.2122304 -1.1313335 -1.0877832
0003c0 75 b9 8e bf 4b c2 85 bf cd ef 7b bf d1 3a 4f bf
       -1.1150347 -1.0449919 -0.9841278 -0.8094912
0003d0 cc be 5d bf 51 a9 8b bf 0f fa 7d bf fa 57 94 bf
       -0.8661926 -1.0911046 -0.99209684 -1.1589348
0003e0 a0 2e 7c bf 34 c1 8a bf 98 3b 5c bf ed d4 63 bf
       -0.98508644 -1.0840211 -0.8602843 -0.88996774
0003f0 29 71 ac 3d 88 b0 3f 3f 58 15 2f 3f 38 89 80 3f
       0.08420021 0.7487874 0.6839194 1.0041876
